Godot_Reinforcement_Learning-main/Examples/Shooter_AI/finale_model_best.onnx (onnx, 29141 bytes, 6 tensors)

mlp_extractor.policy_net.0.weight f4 [64, 37]
0	0x3cfc6710	0.030810863
1	0x3dcde721	0.1005385
2	0x3c1edd34	0.009696294
3	0x3eaa7cf6	0.33298463
4	0x3e429d8e	0.19005415
5	0xbdacdc26	-0.084404275
6	0x3e4ae92d	0.19815512
7	0x3e86a7b2	0.26299816
8	0xbdd3c70b	-0.10340699
9	0x3e422909	0.18960966
10	0x3df61dd2	0.120174065
11	0xbdc92eae	-0.098233566
12	0x3cdf8623	0.027285641
13	0x3db2cbd4	0.087302834
14	0xbd33f2dd	-0.043932784
15	0x3ebc3640	0.3676014
16	0xbe09ad9d	-0.13445134
17	0xbd16a9f0	-0.03678316
18	0xbe4cf879	-0.2001666
19	0x3d7bb216	0.061449133
20	0x3eb080b5	0.34473196
21	0xbd21fc36	-0.039547168
22	0x3ebdf271	0.3709903
23	0xbdced37a	-0.1009893
24	0x3df499ed	0.119434215
25	0x3e41f482	0.18940929
26	0x3d86419b	0.06555482
27	0x3dc98a28	0.09840804
28	0xbe48e24e	-0.19617578
29	0x3d4eb8fc	0.050469384
30	0x3e92a908	0.28644586
31	0x3d17f5bc	0.037099585
32	0x3e2031ed	0.15644045
33	0x3ec68526	0.3877346
34	0x3e859153	0.26087436
35	0x3d12b362	0.035815604
36	0x3da96aa2	0.08272292
37	0xbe5abc9f	-0.21361016
38	0x3ccd3953	0.025051748
39	0x3e2e0770	0.16995025
40	0xbd278b9c	-0.040904626
41	0x3ebcafe4	0.36852944
42	0x3e388bf2	0.18022135
43	0xbd1d11c7	-0.038347032
44	0x3d2271d2	0.03965933
45	0xbd5530b1	-0.05204839
46	0xbc83262d	-0.016009415
47	0xbdebcfbb	-0.11514231
48	0x3b0b92b9	0.002129717
49	0xbe531af9	-0.20615758
50	0x3e9ef5e7	0.31046984
51	0xbe9f50e2	-0.31116396
52	0xbe9fa999	-0.3118408
53	0xbdd28f51	-0.10281242
54	0xbea393b0	-0.31948614
55	0xbd88e26f	-0.06683814
56	0x3e0df430	0.13862681
57	0xbe13d15e	-0.14435336
58	0x3dcb537d	0.099280335
59	0xbe5a7b09	-0.21335997
60	0xbd032db3	-0.032026004
61	0xbe27d7c5	-0.16390903
62	0x3e8a035d	0.2695569
63	0xbd90fc47	-0.07079368
64	0x3e5890be	0.21148965
65	0x3ea09cf4	0.31369746
66	0x3e290aa1	0.16507961
67	0xbe0eb637	-0.13936697
68	0xbe8128e2	-0.25226504
69	0x3dbb740a	0.09152992
70	0x3ea0faff	0.31441495
71	0x3e93e213	0.28883418
72	0x3ddb7c15	0.10717026
73	0xbc8b7152	-0.017021809
74	0x3d33dbfc	0.043910965
75	0xbe915e29	-0.2839215
76	0xbd9a8583	-0.075449966
77	0x3eaad704	0.3336717
78	0xbe593266	-0.21210632
79	0xbd988367	-0.07446938
80	0xbda7f67b	-0.08201309
81	0xbee66141	-0.44996074
82	0x3d3fd4ae	0.046833687
83	0x3c58b555	0.013226827
84	0xbd540c94	-0.051769808
85	0x3da1ca4a	0.07899912
86	0x3ea48a7c	0.32136905
87	0x3e107fea	0.14111295
88	0x3dc0e2b4	0.0941824
89	0xbeafa70d	-0.34307137
90	0xbd74ff8c	-0.05981402
91	0xbe9a0549	-0.30082157
92	0xbe610dd1	-0.21977927
93	0x3e05536c	0.13020104
94	0xbe82d2c0	-0.25551414
95	0x3e864513	0.26224574
96	0x3d92921e	0.07156776
97	0xbeadec95	-0.3396956
98	0x3d0a1d9e	0.03371965
99	0xbd2de33b	-0.042453032
100	0xbcb555c1	-0.022135617
101	0xbe0fa7d0	-0.14028859
102	0xbe331a4f	-0.17490505
103	0x3d3ea54a	0.04654435
104	0xbcae1600	-0.021250725
105	0x3e036d41	0.12834646
106	0xbc3aa8ff	-0.011392831
107	0xbda9dfef	-0.08294665
108	0xbe6fd8b4	-0.2342251
109	0xbc9cd513	-0.01914457
110	0x3e8e41ae	0.27784485
111	0x3de58e72	0.1120881
112	0xbce86075	-0.028366307
113	0xbe238543	-0.15968804
114	0x3e51cc7e	0.20488164
115	0x3e895c51	0.26828244
116	0xbd811d9d	-0.063044764
117	0x39cdd3d5	0.00039258474
118	0x3dbf2d01	0.09334756
119	0x3cd4011d	0.025879437
120	0x3df68e8d	0.12038908
121	0xbc45f3bd	-0.0120820375
122	0x3d44d92e	0.04805868
123	0xbdf8560e	-0.12125789
124	0x3e636451	0.22206236
125	0xbec86cfc	-0.39145648
126	0x3e19823f	0.14991091
127	0x3dd794a2	0.10526396
128	0xbc1ff61a	-0.009763265
129	0x3e82a903	0.2551957
130	0xbc832bfe	-0.016012188
131	0x3cbbe35b	0.02293556
132	0x3e3e62a1	0.18592311
133	0xbd7aa200	-0.06118965
134	0x3da455dd	0.080241896
135	0xbe054f22	-0.13018468
136	0x3e4e2967	0.20132981
137	0x3d04c0e1	0.032410506
138	0xbda3d947	-0.08000427
139	0xbe9fbc3c	-0.311983
140	0x3e20d3f3	0.15705852
141	0x3d105ba0	0.03524363
142	0x3db9b266	0.0906723
143	0xbe8068a1	-0.25079826
144	0xbea73102	-0.32654577
145	0xbe604f4b	-0.21905248
146	0x3ee59b15	0.4484488
147	0xbcf033de	-0.029321607
148	0xbe5d136e	-0.21589443
149	0xbc585f1b	-0.013206269
150	0x3d8b74fa	0.06809421
151	0xbd249101	-0.04017735
152	0x3db2bfd9	0.08727998
153	0x3e32caeb	0.1746022
154	0xbc551060	-0.013004392
155	0xbc197520	-0.009366304
156	0xbdd0039c	-0.101569384
157	0x3da40417	0.080085926
158	0xbe1644b0	-0.1467464
159	0xbe05bc50	-0.13060117
160	0x3e2cb952	0.16867569
161	0xbd609972	-0.054833837
162	0xbeee3825	-0.4652721
163	0xbc80be5f	-0.015715776
164	0x3dde0c17	0.1084215
165	0x3c7ed5d2	0.015553908
166	0xbedfd492	-0.43716866
167	0x3e3ee57c	0.18642229
168	0x3e67f12e	0.22650596
169	0x3d822810	0.063552976
170	0x3dbda989	0.09260852
171	0xbe55222b	-0.20813815
172	0x3ecf0b88	0.40438485
173	0xbe692b38	-0.22770393
174	0xbe90cc4b	-0.28280863
175	0xbd4241c0	-0.047425985
176	0xbdbce594	-0.09223476
177	0xbe8e9f45	-0.27855888
178	0xbc13b356	-0.009014925
179	0xbe0d5061	-0.13800193
180	0x3e1be71a	0.15224877
181	0x3e077d04	0.13231283
182	0xbe399aaf	-0.18125413
183	0xbe558083	-0.20849805
184	0xbe3bc8e3	-0.18338351
185	0x3dec61c1	0.115420826
186	0x3e1ef189	0.15521826
187	0xbe0a6174	-0.13513738
188	0x3d91e6ea	0.071241215
189	0x3d0408f9	0.03223512
190	0xbd80a9aa	-0.06282361
191	0x3e8fd3da	0.28091317
192	0xbdde435c	-0.108526915
193	0xbe008f33	-0.12554626
194	0x3d300289	0.042971168
195	0xbe07b439	-0.13252343
196	0x3da105a1	0.07862402
197	0xbe21f403	-0.1581574
198	0x3e6a9c14	0.22911102
199	0xbdb521b8	-0.08844322
200	0xbc257b31	-0.010100172
201	0xbe157e21	-0.14598896
202	0x3e05730e	0.13032171
203	0xbe811823	-0.25213727
204	0xbe96d3e0	-0.29458523
205	0xbdd62311	-0.10455907
206	0x3de64cbb	0.11245104
207	0x3d7d6a3e	0.0618689
208	0x3d4390dd	0.047745574
209	0xbd999717	-0.07499521
210	0xbe527325	-0.20551737
211	0xbdb55c58	-0.08855504
212	0x3d6bd95c	0.057580337
213	0xbeac3248	-0.33632112
214	0xbe73f54d	-0.23824044
215	0xbe38810f	-0.18017982
216	0xbe145dc0	-0.14488888
217	0xbce19fb9	-0.027541982
218	0x3d109afd	0.03530406
219	0xbe824b7b	-0.25448212
220	0xbe40bc4a	-0.18821827
221	0xbea56ae1	-0.32308105
222	0x3d007904	0.03136541
223	0x3e7f420d	0.2492754
224	0x3e49bff9	0.19702138
225	0xbe604658	-0.21901834
226	0xbda71355	-0.08157984
227	0x3e0fc5bc	0.14040273
228	0x3e1368bd	0.14395423
229	0xbd974904	-0.073869735
230	0xbedaa77f	-0.42705914
231	0xbe8f872b	-0.28032812
232	0xbe0bf9a9	-0.13669457
233	0x3d502830	0.050819576
234	0xbe35c758	-0.17751825
235	0xbd151002	-0.03639222
236	0x3da14176	0.07873814
237	0xbd85c402	-0.06531526
238	0x3d5e5bb0	0.05428666
239	0xbb935c08	-0.004497055
240	0x3e23e77d	0.16006275
241	0x3ec06dfe	0.37583917
242	0x3edc1766	0.42986602
243	0x3eba2d4e	0.3636269
244	0x3e0dcd42	0.13847831
245	0x3dc74180	0.0972929
246	0xbe30cf0c	-0.17266482
247	0xbe71c785	-0.23611267
248	0x3e690eca	0.22759548
249	0x3de2ec93	0.11080279
250	0xbdf28eb9	-0.118436284
251	0x3d70a9db	0.058755737
252	0x3e2d3f34	0.16918641
253	0x3da3071d	0.07960341
254	0xbcc7909d	-0.02436095
255	0xbe05b0d8	-0.13055742

mlp_extractor.policy_net.0.bias f4 [64]
0	0x3993d3c9	0.00028195817
1	0x392204fa	0.00015451378
2	0xb8a84ae7	-8.024816e-05
3	0x39bf800f	0.0003652577
4	0x3a0b5a01	0.0005315841
5	0xb93058ea	-0.00016817791
6	0xb9fc7ac3	-0.0004815665
7	0xb85477a2	-5.0656156e-05
8	0x34388827	1.7185867e-07
9	0xba42f688	-0.0007437249
10	0xb989440d	-0.00026181378
11	0x39a7c8e9	0.00032002412
12	0x39a9e594	0.0003240524
13	0xbaac8c1c	-0.0013164314
14	0x39b7c91e	0.00035054324
15	0xb9fbcb02	-0.00048025703
16	0x397614df	0.00023468163
17	0x3863c2a1	5.430228e-05
18	0xb99ed5e1	-0.0003029546
19	0x3a284d01	0.0006420166
20	0x3953347e	0.00020142083
21	0xb7546779	-1.2660276e-05
22	0x3982f223	0.00024975938
23	0x388b5961	6.6446846e-05
24	0x39f91576	0.0004750897
25	0x38ce8eca	9.849442e-05
26	0x396e97b1	0.00022753958
27	0xb7ac5579	-2.05438e-05
28	0xb9aebe9b	-0.00033329878
29	0x39618b86	0.00021509649
30	0xb982ddec	-0.00024960877
31	0x39ca46ea	0.00038581277
32	0x38540e6c	5.055817e-05
33	0xb97de46c	-0.00024213054
34	0x390b9484	0.000133114
35	0x381f195c	3.7932172e-05
36	0xb86b64b6	-5.612216e-05
37	0x39496987	0.00019208166
38	0x392396a6	0.00015601012
39	0x3a32a371	0.0006814516
40	0x3955fbe4	0.000204071
41	0x394fd265	0.00019819436
42	0x38371fc3	4.366018e-05
43	0x3919348f	0.00014610797
44	0x3a1b4b19	0.0005923971
45	0x3920be6c	0.00015329727
46	0xb971247c	-0.00022997143
47	0x360a6ef9	2.0628197e-06
48	0x3a1631df	0.0005729477
49	0x3911df0c	0.00013911369
50	0xb9769d38	-0.00023518957
51	0x36e74288	6.8920817e-06
52	0x384294a2	4.639163e-05
53	0x394a869a	0.00019314364
54	0x3871a1af	5.7609457e-05
55	0x39556f18	0.00020354649
56	0x398b9b4e	0.00026627857
57	0xb73ac7a7	-1.1132949e-05
58	0x395a32f4	0.00020809082
59	0xb90016a7	-0.0001221547
60	0x38ae6abe	8.316849e-05
61	0x3912c439	0.00013996744
62	0x39c1aeff	0.0003694221
63	0x39acfa00	0.0003299266

mlp_extractor.policy_net.2.weight f4 [64, 64]
0	0x3db59877	0.08866971
1	0xbdbf5ae0	-0.09343505
2	0xbd7ef301	-0.062243465
3	0xbead289c	-0.33820045
4	0x3e02939b	0.1275162
5	0x3e307e9e	0.172358
6	0x3e6be8cd	0.23038025
7	0xbecc6169	-0.39918068
8	0xbec555ca	-0.38542014
9	0xbb30b0f3	-0.0026960939
10	0x3e3f1536	0.18660435
11	0xbd20dccb	-0.039273065
12	0xbe209a24	-0.156838
13	0x3e78eae5	0.24308355
14	0x3decb506	0.11557965
15	0xbd3de402	-0.046360023
16	0x3d628b0b	0.055308383
17	0xbd6e923d	-0.058244932
18	0x3e3cbdf9	0.18431844
19	0xbe366a02	-0.17813876
20	0xbe46f16e	-0.19428036
21	0xbd3aaaa9	-0.04557291
22	0xbd6a1d0e	-0.057156615
23	0x3e6c5c7a	0.23082152
24	0x3deb6c23	0.11495235
25	0x3e266cd8	0.16252458
26	0xbd4627b2	-0.0483777
27	0x3eb57ba0	0.3544588
28	0xbe37c1c8	-0.17945015
29	0xbe61837f	-0.22022818
30	0x3d6a28e5	0.057167906
31	0x3b619d4f	0.0034426039
32	0x3ebac709	0.36479977
33	0xbe6e645f	-0.23280476
34	0xbd0e76e1	-0.03478134
35	0x3e3b6387	0.18299685
36	0x3dc241c3	0.09485199
37	0xbe97c63a	-0.29643422
38	0x3d9bd0bd	0.07608173
39	0x3c95b32f	0.018273918
40	0xbdc91b42	-0.09819652
41	0x3ebab607	0.36467
42	0x3d95ec41	0.073204525
43	0xbdd03be4	-0.10167673
44	0xbcc6004d	-0.024170065
45	0x3e852734	0.26006472
46	0x3b8d7937	0.0043174285
47	0x3db6aea2	0.08920027
48	0xbe07087b	-0.13186829
49	0x3d26ccf5	0.040722806
50	0x3d1bcf0d	0.038039256
51	0x3e10affa	0.1412963
52	0x3ec7eed4	0.390494
53	0x3d4114d6	0.04713901
54	0x3e0a2ac3	0.13492875
55	0xbe058d37	-0.1304215
56	0xbd64a25f	-0.05581891
57	0xbdc0a1ae	-0.09405838
58	0x3e1165a8	0.14198935
59	0xbe21d17a	-0.15802565
60	0x3da47b30	0.08031309
61	0xbe330911	-0.17483927
62	0xbd8512c3	-0.06497719
63	0xbde3ea42	-0.111286655
64	0x3ad58729	0.0016290891
65	0xbdcc6520	-0.099802256
66	0xbdec2801	-0.11531068
67	0xbd68d20d	-0.056840945
68	0x3e127b3d	0.14304824
69	0x3e031080	0.12799263
70	0xbd452f6d	-0.048140932
71	0xbe6969ed	-0.22794314
72	0x3d14ab2f	0.036296066
73	0xbcc0c797	-0.023532672
74	0xbcf4ef19	-0.029899167
75	0x3e26e83a	0.16299525
76	0x3e1ca735	0.1529816
77	0x3df1e2be	0.11810826
78	0x3dcf5f1b	0.10125562
79	0x3d576d58	0.052594513
80	0xbd50c23b	-0.050966483
81	0x3d77a65e	0.060461394
82	0x3dc61b5a	0.09673186
83	0x3e329dec	0.17443055
84	0xbdcba63a	-0.099438146
85	0xbd533ad8	-0.05156979
86	0xbdf7b394	-0.12094799
87	0xbbefdabb	-0.007319776
88	0xbec92a51	-0.39290097
89	0xbdb40498	-0.08789939
90	0x3e71371a	0.23556176
91	0x3e2936de	0.16524836
92	0xbeec6ecd	-0.46178284
93	0xbe034a04	-0.12821203
94	0xbdb5bf5e	-0.08874391
95	0xbd63d581	-0.055623535
96	0xbbfdbde4	-0.007743584
97	0xbe1d7823	-0.1537786
98	0x3e8d7f9e	0.27636427
99	0xbe1c994a	-0.1529285
100	0xbee62cc7	-0.44956037
101	0x3e2ed6fb	0.17074196
102	0x3cbba086	0.022903692
103	0xbe6db907	-0.23215114
104	0x3ea193c0	0.31558037
105	0xbdda1f51	-0.106505044
106	0xbd80bb3e	-0.062857136
107	0x3e483928	0.19553053
108	0x3ed5fb48	0.41793275
109	0x3dedcec9	0.11611707
110	0xbe9b2950	-0.30304956
111	0x3cc36116	0.023850005
112	0xbe7f496a	-0.24930349
113	0xbded8b88	-0.11598879
114	0xbd0f6d89	-0.03501657
115	0xbe0c90c3	-0.13727097
116	0xbe373e6c	-0.17894906
117	0x3e339e55	0.17540868
118	0xbd2ac223	-0.04168905
119	0x3e015bed	0.12632723
120	0xbdc2e89a	-0.095170215
121	0x3e85acfd	0.26108542
122	0x3e566e76	0.20940575
123	0xbd415739	-0.047202323
124	0x3e80ec10	0.251801
125	0x3dad9287	0.084752135
126	0x3e444bd1	0.19169547
127	0x3da28092	0.07934679
128	0xbe28846b	-0.16456763
129	0xbbc43ee8	-0.0059889443
130	0xbe494daf	-0.1965854
131	0xbd7f00d7	-0.06225666
132	0xbe2ebf2a	-0.17065111
133	0x3e615860	0.22006369
134	0xbd4d799c	-0.050164804
135	0xbe5c3e05	-0.21508034
136	0xbe7170e3	-0.23578219
137	0x3b197c9b	0.0023420218
138	0xbe0d7e82	-0.1381779
139	0xbdb355aa	-0.087565735
140	0xbe68ae29	-0.22722687
141	0xbdecc221	-0.11560465
142	0x3ca140d8	0.01968424
143	0xbe432841	-0.19058324
144	0x3c4ac81c	0.012376811
145	0x3e44f3f0	0.1923368
146	0x3da5d523	0.08097293
147	0x3d0efa9f	0.03490698
148	0xbd474ec6	-0.04865911
149	0x3db6f036	0.08932535
150	0xbe12a9a2	-0.14322522
151	0xbdc6d60a	-0.097087935
152	0x3dee830d	0.1164609
153	0xbe74cf9e	-0.23907325
154	0xbef82ec3	-0.48473176
155	0x3dba6a42	0.09102298
156	0x3eca4f40	0.39513588
157	0xbdf6e140	-0.12054682
158	0xbe95dcd7	-0.2927005
159	0xbd958027	-0.07299834
160	0x3e0c4b0d	0.13700505
161	0xbdfcb354	-0.123388916
162	0x3ea56d04	0.32309735
163	0xbcf0afad	-0.029380644
164	0x3e2f88da	0.17142048
165	0x3ee2c45b	0.44290432
166	0x3e3dbf6c	0.18530053
167	0xbea3e38c	-0.32009542
168	0xbc67c1bc	-0.014145311
169	0xbd1ad3c8	-0.037799627
170	0xbbf47536	-0.0074602617
171	0x3e2af35b	0.16694395
172	0xbd82654e	-0.063669786
173	0x3e840782	0.25786978
174	0x3e77cfe8	0.24200404
175	0x3ddbc0ff	0.107301705
176	0x3d75281d	0.059852708
177	0xbd91c1b1	-0.07117022
178	0xbebe7e33	-0.37205657
179	0x3d2bff77	0.041991677
180	0xbe157284	-0.14594465
181	0x3b8771cf	0.00413344
182	0xbe67b4bb	-0.22627537
183	0x3d89c008	0.0672608
184	0x3d39a019	0.045318697
185	0x3d87109a	0.06594963
186	0xbbdcbc31	-0.0067363014
187	0xbd479c4e	-0.04873305
188	0xbd205837	-0.03914663
189	0x3dbdc8d1	0.09266818
190	0xbb4a1cc5	-0.0030839902
191	0x3e53b929	0.20676102
192	0xbd35adad	-0.044355083
193	0xbe3b54b8	-0.18294036
194	0xbb2037c7	-0.0024447308
195	0x3dcf3200	0.101169586
196	0x3e8ab751	0.27092984
197	0x3e169849	0.1470653
198	0xbe000507	-0.12501918
199	0xbd8feb78	-0.07027334
200	0xbdda7c58	-0.10668248
201	0xbc528b94	-0.012850661
202	0xbee461a0	-0.44605732
203	0x3e0a9199	0.13532104
204	0xbd00ad29	-0.03141514
205	0xbe0a8e77	-0.13530909
206	0x3d97344c	0.07383022
207	0xbdc53542	-0.09629299
208	0xbdd312ec	-0.103063434
209	0xbe706883	-0.23477368
210	0x3e14d59c	0.1453461
211	0xbeafdd92	-0.34348732
212	0x3e5e279d	0.21694799
213	0xbe0c7ea5	-0.13720186
214	0xbc1a401f	-0.009414702
215	0x3e2df672	0.16988543
216	0xbd8858fe	-0.06657599
217	0x3e3bb23e	0.18329713
218	0xbd2ba018	-0.041900724
219	0xbe939329	-0.28823212
220	0x3d270b5b	0.040782314
221	0xbd765d14	-0.06014736
222	0xbe559020	-0.2085576
223	0x3d80639a	0.062689975
224	0xbdb8881d	-0.090103365
225	0x3eca197f	0.39472577
226	0x3d9863f6	0.07440941
227	0x3e21477a	0.15749922
228	0x3df1a936	0.117998526
229	0x3e1edc32	0.15513685
230	0x3e13c05e	0.14428851
231	0x3d6b9065	0.057510752
232	0x3eeb500d	0.4595951
233	0x3ce836ed	0.028346503
234	0x3e89937d	0.26870337
235	0xbe17dfab	-0.14831416
236	0x3ddc7415	0.107643284
237	0xbe2cfb52	-0.16892746
238	0xbd0e5b15	-0.03475483
239	0xbd47eaf9	-0.04880807
240	0xbde43268	-0.11142427
241	0x3ecd0aa7	0.4004719
242	0xbd9895bf	-0.07450437
243	0x3d857cf0	0.065179706
244	0x3dabf8fb	0.08397099
245	0x3e57d8f2	0.21078852
246	0xbe4abb6c	-0.19798058
247	0xbe6e2f46	-0.23260221
248	0xbdfad5c4	-0.12247804
249	0x3cdb3dcc	0.026762865
250	0xbd24a869	-0.04019967
251	0xbe29963d	-0.16561218
252	0x3daa4044	0.08313039
253	0xbeab7137	-0.33484814
254	0xbd41e0b7	-0.047333445
255	0xbc50d575	-0.012746205

mlp_extractor.policy_net.2.bias f4 [64]
0	0x39dc4770	0.00042014895
1	0x3c1606d8	0.009156905
2	0xbb6dfadc	-0.0036312854
3	0x3ac6d641	0.0015170054
4	0xbb950f51	-0.004548945
5	0x3d01a201	0.03164864
6	0x3c562bbb	0.01307195
7	0xbace2009	-0.00157261
8	0x3b96ef14	0.004606137
9	0xbb4dc812	-0.0031399769
10	0xbbb796c8	-0.0056026913
11	0xbcd141c9	-0.025544064
12	0x3c4baa0c	0.012430679
13	0x3bc395b1	0.0059687723
14	0xbc246908	-0.010034807
15	0x3b128c6a	0.0022361525
16	0x3b9d47d4	0.0047998223
17	0x3969cae8	0.000222962
18	0x3b42b600	0.0029710531
19	0xb9bba2d1	-0.00035788727
20	0x3a58ac52	0.0008265424
21	0x3d02cd80	0.03193426
22	0x3c25f2ff	0.010128736
23	0x3941980b	0.00018462555
24	0xbc056124	-0.008140836
25	0x3aacbf2e	0.0013179535
26	0xbc18aa0a	-0.009317884
27	0x3b93c006	0.004508975
28	0xbc89157e	-0.016733881
29	0x3c8c2992	0.017109666
30	0xbbbd32f2	-0.0057738954
31	0x3ad9973c	0.0016600857
32	0xbc56694a	-0.013086626
33	0xbaad1286	-0.0013204373
34	0xbb9787e8	-0.0046243556
35	0xbc8ed416	-0.017435115
36	0xba848d7d	-0.0010112968
37	0x3bbd9f46	0.005786809
38	0x3abd18ad	0.001442691
39	0x3b80fe1e	0.003936543
40	0x392b25c0	0.00016321894
41	0x3c22a233	0.009926367
42	0xba19dde6	-0.0005869552
43	0xbb8f89f1	-0.0043804576
44	0x3cc8f9d4	0.02453319
45	0xbc1ec1f4	-0.009689797
46	0x389017f8	6.8709196e-05
47	0x3b73af09	0.0037183187
48	0xb9ace784	-0.0003297889
49	0xb9a32c00	-0.00031122565
50	0x3b110ec2	0.002213404
51	0xbbbe6e0b	-0.005811458
52	0x3b18386b	0.0023226987
53	0xbb520a00	-0.0032049417
54	0x3bf41af0	0.0074495003
55	0xbb5333e6	-0.0032226979
56	0xbbc3c5af	-0.0059744935
57	0x39c4e833	0.00037557035
58	0x3a27036d	0.0006371055
59	0xbb69388b	-0.003558668
60	0xbbfe52fe	-0.0077613583
61	0x3c2d0c4f	0.010562017
62	0x3b6e04e5	0.0036318835
63	0xbb889a32	-0.004168772

action_net.weight f4 [4, 64]
0	0xbc7687d6	-0.015047034
1	0x3d015861	0.031578425
2	0xbc4cb1d2	-0.012493568
3	0xbd3d7290	-0.046251833
4	0x3d6f9b23	0.05849756
5	0x3d45747b	0.048206788
6	0x3dd53472	0.10410394
7	0x3ba53906	0.005042198
8	0x3d00c561	0.031438235
9	0x3d61898b	0.05506281
10	0xbd98ccec	-0.07460961
11	0xbd934bea	-0.07192214
12	0x3d906270	0.070500255
13	0x3daaded6	0.08343284
14	0xbda4c22f	-0.0804485
15	0x3db185ac	0.08668074
16	0xbca2783d	-0.019832725
17	0x3d43bc93	0.04778726
18	0x3c86e504	0.016466625
19	0x3d5cc10e	0.05389505
20	0xbdb1c1c2	-0.086795345
21	0x3d338c05	0.043834705
22	0xbcf7f58a	-0.03026845
23	0x3d93d558	0.072184265
24	0xbcb02cb0	-0.021505684
25	0xbd89da6b	-0.06731113
26	0xbd5becb8	-0.05369255
27	0x3d6e9d8c	0.058255717
28	0xbca239e7	-0.019803
29	0xbbf378fc	-0.007430194
30	0xbd7a7f71	-0.061156694
31	0xbd0db4ac	-0.03459613
32	0xbc9f074a	-0.019412655
33	0x3da2e0fe	0.0795307
34	0xbd7f42b4	-0.062319472
35	0xbd64ff23	-0.05590738
36	0x3e0bb05a	0.13641492
37	0x3bbdbb1a	0.0057901265
38	0x3cc1b6c1	0.023646714
39	0x3da1055a	0.07862349
40	0x3d8a16ba	0.06742616
41	0xbd8f2dd5	-0.06991164
42	0x3d44dbe8	0.04806128
43	0x3d2db7cb	0.042411607
44	0x3dd71397	0.10501783
45	0xbdb0543d	-0.08609817
46	0xbd8c065a	-0.06837149
47	0xbcea93af	-0.028634874
48	0xbb5cb90f	-0.003367964
49	0xbdd331d3	-0.103122376
50	0xbc7a5d8a	-0.0152810905
51	0xbd92ab39	-0.071615644
52	0xbd1354ee	-0.035969667
53	0x3d2321bb	0.03982709
54	0x3d5f42a3	0.05450691
55	0xbdb336b5	-0.08750669
56	0x3c0df643	0.00866467
57	0xbcbb725d	-0.022881681
58	0x3dac90ed	0.0842608
59	0xbd1d5557	-0.038411465
60	0xbd8d4a5a	-0.06898947
61	0xbbe20555	-0.0068976083
62	0xbd2b810f	-0.041871127
63	0xbd285ce6	-0.04110422
64	0x3ac06cbb	0.0014680842
65	0x3bdda4e3	0.006764041
66	0xbbd7c224	-0.0065844227
67	0x3c195019	0.009357476
68	0xbd0eb16f	-0.034837183
69	0x3d4f7c94	0.050655916
70	0xbbbec667	-0.0058219912
71	0x3b0265cb	0.00198971
72	0x3cdca5f9	0.02693461
73	0xbd2e007f	-0.04248094
74	0x3c0b729c	0.008511212
75	0xbd448dd7	-0.04798683
76	0x3d053a4b	0.032526296
77	0xbb9e9aab	-0.004840215
78	0x3b68b52e	0.0035508382
79	0xbcd69fda	-0.02619927
80	0x3c12ddd0	0.008964017
81	0xbc262728	-0.0101411715
82	0x3d0aa3d5	0.03384765
83	0xbc556afd	-0.013025996
84	0x3d06106e	0.032730512
85	0x3db39f9e	0.08770679
86	0x3d80a125	0.06280736
87	0xbcdb890d	-0.02679875
88	0x3c1f04d3	0.00970574
89	0x3c81bddb	0.0158376
90	0xbcd3a081	-0.02583337
91	0xbc86ec92	-0.016470227
92	0xbd0e849a	-0.034794427
93	0x3d6e04c0	0.05811
94	0xbc988a5e	-0.018620666
95	0x3c8c1e20	0.017104208
96	0xbd06523c	-0.03279327
97	0xbd20e1ae	-0.039277725
98	0x3b4dd34c	0.003140646
99	0xbcb56f16	-0.022147696
100	0xbd8f9c54	-0.07012239
101	0x3d04bf67	0.032409098
102	0x3bac4b1e	0.005257978
103	0xbca42465	-0.020036886
104	0xbcceeed4	-0.025260366
105	0x3d7713c9	0.060321603
106	0xbd22e0fd	-0.039765347
107	0xbd01f265	-0.031725306
108	0x3ca7b0c2	0.020470027
109	0x3c9896e6	0.018626641
110	0x3ceba5e7	0.028765632
111	0x3cc10b86	0.023565065
112	0xbc486758	-0.01223167
113	0x3d2913ec	0.041278765
114	0x3c8a4f7f	0.01688361
115	0xbc10bd47	-0.00883419
116	0x3ca3827a	0.019959677
117	0xbcf327f7	-0.029682143
118	0xba9fadca	-0.001218253
119	0x3b91ffca	0.0044555413
120	0xbcc41360	-0.02393502
121	0x3c0e6f49	0.008693525
122	0xbc40f2a5	-0.011776601
123	0x3a2c9814	0.00065839407
124	0x3b8679b7	0.004103865
125	0x3d2a9b32	0.041651912
126	0x3c9c33d1	0.019067677
127	0xbb8d545f	-0.0043130363
128	0x3c94bf8c	0.018157743
129	0x3caf0c57	0.021368189
130	0xbbc61bbc	-0.0060457867
131	0x3c7f4e27	0.015582598
132	0x3b029c18	0.0019929465
133	0xbd0daa6c	-0.034586355
134	0xbcaff225	-0.021477768
135	0x3c69a5a3	0.014260682
136	0x3b376bc2	0.0027987813
137	0xbc4cea9f	-0.01250711
138	0xbd3bb576	-0.04582735
139	0x3c72c294	0.014816899
140	0xbd1b5125	-0.037919182
141	0xbcdf1ee6	-0.027236413
142	0xbcb73fae	-0.022369232
143	0xbba57717	-0.005049597
144	0xbab65257	-0.0013910037
145	0xbcc9ab94	-0.024617948
146	0x3bbe6a38	0.005811002
147	0x3d20ea96	0.03928622
148	0xbc7ec8a4	-0.015550766
149	0xbda66522	-0.08124758
150	0xbd1e2416	-0.038608633
151	0x3cb96787	0.022632373
152	0x3db15ae1	0.08659912
153	0x3c018ba3	0.007906827
154	0xbc693b82	-0.014235379
155	0x3cf93a72	0.030423377
156	0x3d12ae46	0.03581073
157	0x3d0c112e	0.03419607
158	0xbc32e877	-0.010919682
159	0x3d24a3e0	0.040195346
160	0xbcd7e7b5	-0.026355604
161	0xbc04b126	-0.008098876
162	0xbcc97f9d	-0.024596984
163	0x3cca2c2c	0.024679266
164	0xbd2f4752	-0.042792626
165	0x3d214c90	0.039379656
166	0x3ba5af83	0.005056323
167	0xbcac87ac	-0.021060787
168	0xbd02e77a	-0.031959035
169	0xbd352a88	-0.044230014
170	0x3d429cb0	0.04751271
171	0x3ca3e5bf	0.020007012
172	0x3d1e83d8	0.038699955
173	0x3c4ae022	0.012382539
174	0x3c9f4272	0.019440863
175	0x3d29ca34	0.0414526
176	0xbc30b839	-0.01078611
177	0xbd2aad87	-0.041669395
178	0xbcfb95b3	-0.03071103
179	0xbc9c9ec0	-0.019118667
180	0x3c6bca2d	0.014391464
181	0xbbc956c0	-0.0061443746
182	0x3ba5043a	0.0050359042
183	0xbcc48ecf	-0.023993878
184	0xbc92888c	-0.017887376
185	0xbc1b75c6	-0.009488529
186	0xbbca0add	-0.006165846
187	0x3c99a0d3	0.018753445
188	0x3c947a4b	0.01812472
189	0xbc8c2fd4	-0.01711265
190	0x3d432dd0	0.047651112
191	0xbc6355ad	-0.013875407
192	0x3d04a533	0.03238411
193	0x3dd0d829	0.10197479
194	0x3c00ae56	0.007854065
195	0x3ce4f39f	0.027948199
196	0x3c0eb228	0.008709468
197	0xbd08e299	-0.033419225
198	0x3c3e86d8	0.011628829
199	0xbcda2b67	-0.026632024
200	0xbc66dccd	-0.014090729
201	0xbca719e3	-0.020398086
202	0xbb1d089a	-0.0023961426
203	0xbcc50c9c	-0.024053864
204	0xbd660414	-0.056156233
205	0x3bb0fea2	0.0054014483
206	0xbb20c528	-0.0024531577
207	0x3c04497d	0.008074162
208	0x3bbb77bf	0.005721062
209	0xbd09d57d	-0.033650864
210	0xbd019264	-0.03163375
211	0xbbd8514b	-0.0066014878
212	0xbca4f281	-0.020135166
213	0x3caf8b9f	0.021428881
214	0x3bd3e8b4	0.0064669494
215	0x3c8269b4	0.015919544
216	0xbda2bdad	-0.07946334
217	0x3ccda337	0.025102241
218	0x3c17ba49	0.009260722
219	0x3c9c7788	0.019099966
220	0x3d865128	0.06558448
221	0x3ccf0b8c	0.02527406
222	0x3bc6aa6e	0.0060627973
223	0xbbf359e4	-0.0074264873
224	0xbd62ec8b	-0.055401366
225	0x3c6b52d6	0.014363011
226	0xbc26d7be	-0.010183273
227	0xbc03ef4e	-0.00805266
228	0x3d48b9d5	0.04900535
229	0xbd85b1c8	-0.0652805
230	0xbcc79704	-0.024364002
231	0x3d2e38b5	0.04253455
232	0x3b8ebeb7	0.004356231
233	0x3cab32a3	0.020898169
234	0x3da40f9a	0.08010788
235	0x3dafeec5	0.085904635
236	0x3dde6c1c	0.10860464
237	0xbd9648f7	-0.07338136
238	0xbc315735	-0.010824014
239	0x3b5f1d41	0.0034044536
240	0x3d249b9c	0.040187463
241	0x3c3bec8e	0.011469973
242	0xba00d2a9	-0.00049142033
243	0x3d1e06e4	0.03858079
244	0x3d1522e1	0.036410216
245	0x3cdae090	0.026718408
246	0x3cc4c84f	0.024021296
247	0xbaad5223	-0.0013223331
248	0x3d2a2322	0.04153741
249	0x3b6c4d7d	0.0036056929
250	0x3ba40d8a	0.005006497
251	0x3d2b7cb0	0.04186696
252	0x3ce884f1	0.028383704
253	0xbbd2c3b6	-0.006432022
254	0x3d0756fd	0.033041943
255	0x3c352349	0.011055776

action_net.bias f4 [4]
0	0x3d80bb73	0.06285753
1	0x3e7f5f56	0.24938712
2	0xbc9167e4	-0.017749734
3	0x3d0c6104	0.03427221
