Godot_Reinforcement_Learning-main/Examples/Shooter_AI/final_model.onnx (onnx, 25045 bytes, 6 tensors)

mlp_extractor.policy_net.0.weight f4 [64, 21]
00000000: b178 ba3d 5aed bebd 8453 82be a29b e5bd
00000010: b978 603e 041b 963d af2c 163e 3f2f 3cbe
00000020: c64a 24be 9358 fd3c 78ab 07bd e0e6 a8bd
00000030: dfc1 41bd b782 e13d 4f9a 573d d12a 09be
00000040: e0ca a6bd cfc8 ce3d 167c 023e a3d8 86be
00000050: fc50 133d acbd 9ebe 4591 87be 0337 d13d
00000060: a861 543e 856a be3e c09f 1b3e e5c0 49be
00000070: 558a 853c 6514 583c 7042 b93c 1249 cfbc
00000080: 944f c5be 923e 123e f697 82be ac82 e9bc
00000090: 9861 a5bd 2399 a9bd 28a9 d4bc 406f c8bd
000000a0: 7cc1 e6bd 6154 023e 11b6 3ebd 9ac5 6dbd
000000b0: ba3b c03c a13c df3c ff2f 32be 00d3 14bd
000000c0: 4847 103e 92b3 963d f83c 1b3e eadb 9f3d
000000d0: 3ea3 bebd 8430 65bd 59f9 503e ef9c 11be
000000e0: f3e4 debc bcdb 1fbe f376 73bd 6bb5 963d
000000f0: 4e10 abbc c3ce 51bd 1341 cf3e b43f 32bd
00000100: 463f c2bc ef04 153e 7abf 233e b74c debd
00000110: 0c3c 94bc 8d4f 7c3e b9fd 5fbe ec48 c5bd
00000120: 8eeb a33d a3be 3d3d 93dd 1d3e e87e 7bbe
00000130: f94d 893d 9c07 1bbe 61a5 efbd 157f d13d
00000140: c61e ae3e ab3b 6f3d 1009 b6bc 033a e83a
00000150: 5a64 7d3e 7b6e 2a3e 6bea 16bd 8572 c7bd
00000160: b95e fa3c 1671 82be d6b6 51be f4d9 e6bd
00000170: a4af e63d 6659 603c 24e4 9bbe 8f6c bfbd
00000180: ac5c 2dbe e50f e7bc 7b1b e23d f1db 4bbd
00000190: f6f1 cf3c dea3 cc3d e3d6 053e 32a4 343d
000001a0: d632 8f3e e679 93be e578 4e3d 0d5c 3bbe
000001b0: 526a 08be 992a 37be 7188 703e 456f 0d3e
000001c0: 7121 0b3d d688 103e 0ffe 6dbe a673 a03e
000001d0: 3853 98be 9695 b4bc 94fb 073c 9fc5 87bc
000001e0: 0416 39bd 6f16 28be 853e 563e 1738 bf3d
000001f0: d3e0 00be 90b1 fdbd 2348 683d cc4d 853d
00000200: bc91 81be cd37 963e 949a 84be 0014 f93d
00000210: 61a9 4fbd 4bb9 d2be 0a52 0bbd ddfb b43d
00000220: ad37 d3bd d71f e13d c6c9 debd 87a3 0dbd
00000230: 1d54 bb3d c2a1 88be 78f1 bebd 9cb4 84bd
00000240: 1853 053d d970 683e fc1c 8f3c 299b 3c3e
00000250: 5826 5f3e adc7 f93d 8020 ab3d bd57 1d3d
00000260: c59f b3bd 4112 55be e210 063e d5d9 023e
00000270: 8120 29be 8fe6 9bbe 4d93 ad3d 4c89 83be
00000280: 53cd e93d 3d89 b9bd 2039 0e3e d49f 373e
00000290: 75b5 56bd 0e4e e93d be13 843b dca3 dbbc
000002a0: 218c 353e fbf0 b7bc 3996 6cbd d82d 993e
000002b0: 57fc b33d e64a de3b d94d 27be 9246 903e
000002c0: 4c52 09be e098 853d 2fb3 46bd d867 30be
000002d0: 5fb3 36be 4469 a63c ab97 0abe 1c7e 903d
000002e0: 187d 00be f3aa 063e 1ca8 01bd 9a19 023f
000002f0: e75a 5b3e c84e 6d3d a70a 673c 1d5e acbd
00000300: 571b b6be d99f 30bd da68 0f3f 56cb 563d
00000310: c78b d9bc 1c04 d1be 9910 15be 6df4 0cbe
00000320: 60e4 883d ef3d 7bbe 22ab 5ebd 5a4a 74bd
00000330: 077d 4abe a018 ffbc 6700 6cbe 36d7 45be
00000340: e3e2 443e 2f5f 2f3d 2d99 173e 393a 46be
00000350: ca06 debd f031 03be 0dd0 ccbe 491c d9bd
00000360: 7a8d b83e 8a8d 823d de96 7a3e 0cd5 adbe
00000370: 0398 40be cc8c 8abe 4e45 1b3e 01ed fb3d
00000380: 524b a33d b019 a93c 2a28 1cbd 6076 733d
00000390: 9a43 403d 7a8d 2dbd 89ae 27be ebf6 153e
000003a0: fc5e dfbd 03a8 c33d 8361 c03d 71b4 9a3c
000003b0: fe55 c6bd 4b8e fd3d 9be4 0a3d 034a e63d
000003c0: 8239 ffbd 2952 2d3e 049d 77bd 5b6f f4be
000003d0: f6a8 7b3d 9ad8 dc3c 27d9 1fbe 67d1 06be
000003e0: 7f20 b9bc e597 97be 6e0d edbd 5fee 99be
000003f0: a47d 433e e684 31be 1e89 633d 00dd 5b3d
0.09105051 -0.09322615 -0.25454342 -0.11211325 0.21921052 0.073293716 0.14665483 -0.18377398
-0.16044149 0.030926025 -0.03312251 -0.08247161 -0.04730403 0.1101126 0.052637395 -0.1339524
-0.08144164 0.10096895 0.12742648 -0.26337156 0.035965905 -0.31004083 -0.2647802 0.10215571
0.20740378 0.37190643 0.15197659 -0.1970249 0.016301313 0.013188456 0.022614688 -0.025303397
-0.38537276 0.14281681 -0.25506562 -0.028504692 -0.08075255 -0.08281162 -0.025959566 -0.09786844
-0.11267373 0.127275 -0.04656035 -0.058049776 0.02346598 0.02725059 -0.17401122 -0.036334038
0.14089692 0.07358469 0.15159976 0.07805617 -0.0930848 -0.05595447 0.20407619 -0.14220022
-0.02720878 -0.15611166 -0.05943961 0.073588215 -0.020881798 -0.051222574 0.40479335 -0.043517783
-0.023711812 0.14552663 0.15991011 -0.10854476 -0.018095039 0.24639721 -0.21874131 -0.09633049
0.08003913 0.046324383 0.15416555 -0.2456013 0.06704325 -0.15139621 -0.117014654 0.10229317
0.34007853 0.058406513 -0.022221118 0.0017717484 0.24745312 0.16643707 -0.036844652 -0.0973864
0.030562745 -0.25476903 -0.20479903 -0.1127204 0.112639695 0.013693189 -0.30447495 -0.09346878
-0.16929883 -0.028205821 0.11040398 -0.0497703 0.02538393 0.09992193 0.13070254 0.0441019
0.27968472 -0.2880394 0.050408263 -0.18296833 -0.13321808 -0.17887343 0.23489548 0.13811977
0.03396744 0.14114699 -0.23241447 0.31338233 -0.2975099 -0.022043984 0.008299727 -0.016573725
-0.04518701 -0.16414808 0.20922287 0.0933687 -0.12585764 -0.12387383 0.05670942 0.06508979
-0.253065 0.29339448 -0.25899184 0.12162018 -0.05069864 -0.41156992 -0.034013785 0.088371016
-0.10313354 0.10992401 -0.10878329 -0.03457978 0.09146903 -0.2668591 -0.093234 -0.06479761
0.032549948 0.22699298 0.017469876 0.18418564 0.2179197 0.12196288 0.08355808 0.038413752
-0.08770708 -0.20807745 0.13092378 0.12778409 -0.16516306 -0.3044934 0.08475361 -0.25690687
0.114161156 -0.09059379 0.13888979 0.17932063 -0.052419145 0.11391841 0.0040306738 -0.026811533
0.17729236 -0.022453776 -0.05776045 0.29917789 0.087883644 0.006783831 -0.1633829 0.2817884
-0.134103 0.06523299 -0.048510727 -0.17227113 -0.17841862 0.020313866 -0.13534419 0.070553035
-0.1254772 0.1315115 -0.031654462 0.50820315 0.21421395 0.05793646 0.014101661 -0.08416388
-0.35567734 -0.043121193 0.56019366 0.05244001 -0.026555909 -0.40823448 -0.14557113 -0.13765116
0.06684184 -0.24535345 -0.054362424 -0.05964122 -0.19774257 -0.031139672 -0.23047028 -0.19320378
0.19227175 0.042815384 0.14804526 -0.19358148 -0.10841139 -0.12812018 -0.4000248 -0.10601098
0.36045438 0.06374653 0.24471614 -0.33951604 -0.18807988 -0.27060544 0.15163156 0.12301064
0.079733506 0.020642132 -0.03812424 0.059439063 0.04693947 -0.04237125 -0.16375174 0.14644973
-0.10906789 0.0955353 0.09393599 0.01888487 -0.096843705 0.12380656 0.03390942 0.11244585
-0.124621406 0.16925873 -0.060452476 -0.47741207 0.06144043 0.026958752 -0.15610181 -0.13165818
-0.022598503 -0.29608074 -0.11574827 -0.30064675 0.19090897 -0.17335853 0.055550687 0.05367756

mlp_extractor.policy_net.0.bias f4 [64]
00000000: 5a09 973a f4dd 583a 9220 01bb f9d3 513a
00000010: 5526 6cbb 7a35 453a b9da 483a dea7 0c3b
00000020: 8717 bdba 5428 91bb 51c0 063a fd22 dfba
00000030: 2b05 c639 39ab fab9 9ef2 e2ba c30e feb9
00000040: 993b 403a 2909 22bb abdd cf3a 2153 9fba
00000050: 4f4d 80ba fda8 86bb 4b01 b2bb 0bf5 f3bb
00000060: 405f cd3b 65db c6ba 4a63 16bb e6ac d53a
00000070: f6e3 e3ba 6a97 693b cd49 86ba fd5f caba
00000080: 105b 81ba a856 51bb d378 6cbb f75b b039
00000090: f8bc 1f3b db31 76bb 43b8 873b ef9d 753b
000000a0: 5101 f83a fa8a 373b d9a9 913a e0fc c739
000000b0: d7e9 b63a 76e7 d4b9 7b93 b7bb 6d5c ce3b
000000c0: 2675 bb39 d636 1e3b 5576 603b 36d0 843b
000000d0: f416 9f37 9dde 6b3a d2ee 38b9 0665 67bb
000000e0: 5cd6 86ba b304 dab9 67ea 0bbb d52c efbb
000000f0: 76fe 603b 0024 6dbb 9a88 333b a29b 6e3b
0.0011523173 0.00082728197 -0.0019703251 0.00080043037 -0.003603359 0.0007522922 0.0007661987 0.0021462361
-0.0014426567 -0.0044298563 0.0005140352 -0.0017023977 0.00037769353 -0.00047811287 -0.0017314737 -0.00048457654
0.00073330995 -0.0024724698 0.0015858909 -0.0012155512 -0.0009788665 -0.0041095004 -0.005432283 -0.007444983
0.006267458 -0.0015171586 -0.0022947364 0.0016302138 -0.0017386663 0.0035643228 -0.0010245383 -0.0015439984
-0.0009869058 -0.003194252 -0.003608276 0.00033637855 0.0024374109 -0.0037566337 0.0041418388 0.003747817
0.0018921291 0.002800642 0.0011113241 0.00038144644 0.0013955188 -0.00040608243 -0.005602298 0.006297639
0.00035754702 0.0024141571 0.003425022 0.004053141 1.8964965e-05 0.00089977105 -0.00017636575 -0.0035308017
-0.0010287273 -0.000415837 -0.0021349431 -0.0072990456 0.0034331358 -0.0036184788 0.0027394653 0.0036408682

mlp_extractor.policy_net.2.weight f4 [64, 64]
00000000: 3e6d e8bd 8bba d83c ad38 61bd ce88 313e
00000010: cca1 2fbe 8961 3f3e 2fca 4b3d 2a70 4ebe
00000020: 01ee 5d3e 8525 863e 530a 52be c5b4 76be
00000030: cb1a 143d cdbb 00be 61c9 e2bd 04a7 a2be
00000040: 4b5c 5bbb ffef be3d ed56 c4b9 8371 c1be
00000050: 4e36 413e 8ffe f3b8 2ef9 ba3e 5f6a 16be
00000060: 8b14 8f3e c5bf ad3e c17c efbb a709 49be
00000070: 1f9e d1b9 798f 5dbd f0e4 5fbe 5807 a6bd
00000080: f906 a7be 8ea9 a8bd b0e2 ddbd 1d07 053e
00000090: 920a abbd 2dea 4b3e fa65 d5bd 95b3 99bd
000000a0: 967c bb3e 91f0 bdbd d948 083e 1d94 4a3e
000000b0: 0c82 10be 3da3 95bc 2fe2 5c3d 9105 5c3d
000000c0: f27f 1f3d d0ef 6bbe a56c 83be 01f1 abbd
000000d0: d399 53bc 2ab0 8cbc c356 2abe 6207 bdbe
000000e0: ecb9 473d 01a0 02be 9a02 f13d 5796 353e
000000f0: 1b36 26be 37ee 213e 5303 f9bd 9e92 483e
00000100: 0406 63bd d249 86be 0958 b4bd d503 92bd
00000110: 233b d5bd 069b 083e 08c5 30be 0e54 b1bc
00000120: 1889 d6bd 3fb1 46be 90de 7c3d 37f1 083e
00000130: 22a8 d73c 087a a7bd 26aa f0bc 123a 6bbc
00000140: 1f98 0fbe 9677 66be b192 2e3e 8529 3bbe
00000150: 5a20 b9be 6877 813d 3e70 1dbe f633 c0bd
00000160: a5a3 923e 0b84 4ebe 0182 31be ba60 f6bd
00000170: 4ad5 f13d 02ee 283e d355 b33d 953a ba3e
00000180: 3323 683e 61e3 483e fab7 d9bc 81af adbe
00000190: 891b f23c d93e ef3d c8d3 14bd 0e4e babe
000001a0: 834c 913e 620e b83d 0993 a03d c698 2b3e
000001b0: a129 65bd fdc1 813e 9a7e 063e 3b21 c33e
000001c0: 24ea 8f3e 8117 a13d 3575 4cbc 6f5d 723e
000001d0: 8081 90bd ea11 3bbe 43bb 8ebd a490 913d
000001e0: 4874 30be a560 0cbd d0df 933e 5b17 843c
000001f0: 92c5 d93d ab36 883d 625d 87be 5a80 7e3e
00000200: 6bff a4bd 07b2 b63e 2e50 783e a5b0 0cbe
00000210: 56dd ef3c e65d 3dbe 9bab 0e3e c3e6 cd3c
00000220: f1fd 98be 000c 3bbe 1873 5eba f39d b93e
00000230: 95d2 c1bd 51ad 85be f6c3 24be 9ef8 563e
00000240: 613d 42be e5ad 42bd 453e 443d 990f 91be
00000250: f42f 3cbe 61fc 7a3d 8e6e 293e 7336 1b3e
00000260: 6a71 e0b9 1204 a3bd f832 17be fdac 7ebe
00000270: e1c2 193d 9b77 063e 973f 313d 6542 98bd
00000280: b94f 06be 5e48 c9be e7cf ab3e 0bb6 bb3d
00000290: 3ff4 883d 8520 6cbe fef7 9fbb c1c0 7f3d
000002a0: 4c86 1ebe 5db7 7dbe ee23 9fbd c0bb f93c
000002b0: 9891 1b3c 6e7a e63c 57eb 3e3e bd80 813e
000002c0: c05d 87be 3846 07be 2f15 81bd 559a c63b
000002d0: 9985 7cbd 591e 363e e4e0 8d3d 0387 76be
000002e0: e7a1 e83d 07b1 8abe 2f5a 913e 356d 2cbe
000002f0: 0d56 ce3d 852d 893e 3712 893d e401 9d3d
00000300: 8dc1 3fbe c28c cb3e d79f a5bd 7fe6 85bd
00000310: c2e6 aebe d398 193e 2315 d43d 2b10 b3be
00000320: b873 953d 9918 01be 9771 d23d 776c 823c
00000330: bcdb c93d 51fe 943d 275b 37bd 2b14 fc3c
00000340: 4a95 cd3e 540a 933e 337f 833d 4ede bebc
00000350: 3aac cebd c6f4 bbbe 0851 293e 2bf4 60be
00000360: 5c15 31be af49 9a3b cb2c 16be 2ed8 a23c
00000370: 374a f8bd 09a6 0b3e 3d8a d7bd 2597 abbc
00000380: f378 8abd 1d0a 05be c7b7 1f3d 018b 2abe
00000390: 7d3d a7bd 29e3 6d3d a82e 2dbd 6acd 88be
000003a0: e254 a4be fb12 8ebd 6dd2 2cbe 3cc4 7b3e
000003b0: 8cd6 6c3e d90a 33be 1386 88be 5ddc b23d
000003c0: 9067 783e dee5 ef3d 197b 3c3e 79d5 98bd
000003d0: 4feb 2fbe f68d 233e 080d c83d 01c4 b63d
000003e0: 4716 0ebe 1eb2 003e fd9d d4bd cde7 ccbd
000003f0: 5f89 333e 2748 54be f0b0 6bbd 9d66 be3e
-0.11348961 0.026456138 -0.05498569 0.17337343 -0.17151564 0.1868955 0.049753364 -0.20159975
0.21672823 0.262005 -0.20511751 -0.24092396 0.036158364 -0.1257164 -0.11073566 -0.31768048
-0.003347176 0.09323119 -0.00037448798 -0.37781915 0.18868372 -0.00011634558 0.36518234 -0.14689015
0.2794536 0.3393537 -0.007308573 -0.19632588 -0.00039981396 -0.054091904 -0.21864676 -0.081068695
-0.32622507 -0.08235465 -0.10834253 0.12990995 -0.083516255 0.1991355 -0.10419841 -0.07504956
0.3661849 -0.092744 0.13309039 0.19783063 -0.14112109 -0.018266315 0.053926643 0.053716246
0.038940378 -0.230407 -0.25668827 -0.08395577 -0.0129150925 -0.017173845 -0.1663466 -0.36919695
0.048761293 -0.12756349 0.11768074 0.17733131 -0.16231577 0.15813528 -0.12158837 0.1958718
-0.05542566 -0.26228195 -0.08805854 -0.07129637 -0.1041167 0.13340387 -0.17262661 -0.021646526
-0.10475367 -0.19403552 0.06173569 0.13373266 0.02632529 -0.081775725 -0.029378008 -0.014357107
-0.14022873 -0.22506556 0.17048146 -0.18277557 -0.36157495 0.06321603 -0.15374848 -0.09384911
0.28640476 -0.20167558 -0.17334749 -0.12030168 0.1180826 0.16497043 0.08756604 0.3637282
0.22669677 0.19617988 -0.026576985 -0.3392296 0.029554145 0.11681909 -0.036334783 -0.36387676
0.28378686 0.08987118 0.07840545 0.16757497 -0.055947904 0.25343314 0.13134232 0.3811129
0.28108323 0.07865811 -0.012479116 0.23668455 -0.0705595 -0.18268552 -0.06969311 0.07107666
-0.17231858 -0.034271855 0.28881693 0.016124418 0.10633387 0.06651052 -0.26438433 0.2485365
-0.080565296 0.356827 0.24249336 -0.1373926 0.029280346 -0.1849285 0.1393265 0.02513445
-0.29881242 -0.18266296 -0.0008485778 0.36253318 -0.094639935 -0.26108792 -0.16090378 0.20993277
-0.18968727 -0.04752912 0.047910947 -0.28332213 -0.18377668 0.061275844 0.1654608 0.1515749
-0.0004280911 -0.07959761 -0.14765537 -0.24870677 0.037539367 0.13131563 0.043273535 -0.07434539
-0.1311635 -0.39313024 0.33557054 0.09165581 0.06687211 -0.2305928 -0.004881858 0.062439684
-0.15480918 -0.24776979 -0.07770525 0.030485034 0.0094951615 0.02813455 0.18644463 0.25293532
-0.26438713 -0.1321038 -0.063028686 0.0060608783 -0.061650846 0.17785014 0.0692766 -0.2407494
0.113590054 -0.27088186 0.28389117 -0.16838534 0.10075007 0.2679254 0.06692927 0.07666376
-0.18726178 0.39755827 -0.08087128 -0.06538104 -0.3416043 0.14999704 0.10355594 -0.34973273
0.07297462 -0.1260704 0.10275572 0.01592086 0.09856364 0.072750695 -0.044764664 0.030771336
0.4015296 0.28718817 0.06420746 -0.023299363 -0.10091443 -0.36710185 0.16534817 -0.21968143
-0.17293304 0.004708491 -0.14665525 0.019878473 -0.1212353 0.13637556 -0.10524414 -0.020946095
-0.067613505 -0.12992139 0.038993623 -0.16654588 -0.08166025 0.058077965 -0.042280823 -0.26719218
-0.3209601 -0.06937214 -0.16877146 0.24586576 0.23128718 -0.17484607 -0.2666479 0.08733437
0.24258256 0.117137656 0.18406333 -0.07462592 -0.17179607 0.15972123 0.097681105 0.089241035
-0.13875686 0.12567946 -0.103816964 -0.1000515 0.17532872 -0.20730649 -0.057541788 0.37187663

mlp_extractor.policy_net.2.bias f4 [64]
00000000: 9357 1dbb 100b 273c 7c30 33bb 6586 7cbc
00000010: 72a4 073d 4d61 22bb 1c93 5f3c 26a2 513c
00000020: 3123 333c 6e13 3d3c 1721 6cbb adc1 9eba
00000030: f46c b43b 3f3e 79bb 649f 523a 2961 b73a
00000040: 3fed 203a 46fe 7fbc 4288 c03b aef7 8fbb
00000050: b305 28ba ae8f 1e3c c279 00bd a989 00bc
00000060: 749c cc3c e71b d0b9 6013 48bb c3b1 c0bc
00000070: 2362 203c 84fa 483b 24f4 083b 021e 883c
00000080: 87c8 57bc 1c42 153c 2f2a 8f3b 1867 33bb
00000090: 2f1f 65bc 1d00 41bc 7ff9 80bb eb67 8b3c
000000a0: 6f9a 1f3c 3885 5a3b b5ac 203c 37aa af3b
000000b0: a124 4a3c 04f4 e13a 9ecd 673c 8999 9f39
000000c0: 3af9 c6ba 8d91 7c3c 30cf de39 815e ab3b
000000d0: 1456 b6bc f9e1 283b feea 853c 050a d63b
000000e0: f471 85bb 354c 8bbb 584a 0dbb f0b5 cebb
000000f0: 52ff 123b 3355 453b 765b 53bc df76 243b
-0.0024008497 0.010195509 -0.0027342131 -0.0154129015 0.03311581 -0.0024777234 0.013645913 0.012795007
0.010933683 0.011540277 -0.0036030465 -0.0012112163 0.0055061523 -0.0038031486 0.00080346153 0.0013990748
0.0006138868 -0.015624588 0.005875618 -0.0043935394 -0.00064095407 0.009677811 -0.031366117 -0.007845321
0.024976946 -0.0003969364 -0.0030529127 -0.023522263 0.009789023 0.0030666897 0.0020897472 0.016615871
-0.013170368 0.00911 0.0043690423 -0.002737468 -0.0139844855 -0.011779812 -0.0039359923 0.017017325
0.00974141 0.0033343565 0.009806802 0.0053608674 0.012337835 0.001723886 0.014148144 0.00030441236
-0.0015180476 0.015415561 0.00042497506 0.0052297716 -0.022257842 0.0025769456 0.016347405 0.006531956
-0.004072422 -0.004251028 -0.0021559205 -0.0063083097 0.0022430015 0.0030110597 -0.012900224 0.0025095267

action_net.weight f4 [4, 64]
00000000: 805a c4bc 036a 443c 351d 96ba f87f 77bc
00000010: f210 ed3b ccb9 283c 72c1 c3bc f1e1 7e3c
00000020: 6aed 18bc f18d a03c 95af e93c e5f7 12bd
00000030: 2196 40bd 4679 413c c3be 95bc 9414 e73c
00000040: 1638 d0bc 1b55 30bb 6bf1 e53c e8ab 903c
00000050: 6c63 c6bb 0ac9 bb3c f516 a03b abfb 123d
00000060: 1e12 b03b e58f fe3c 461a 933a fe6c 1a3b
00000070: 0e13 ee3b d72b d4bb 113c 35ba 769f 343c
00000080: 2dd4 ff3c 6e50 7abc cd13 90bc df24 6bbc
00000090: c5ce d4ba e1af f6ba 279f d03b 1bba ba3b
000000a0: 5922 703b a49f 8f3b b723 863c 2891 81bc
000000b0: 16c3 eb3c 1b79 36bc e738 26bd 71cb 233c
000000c0: 4317 babb 9a9f aabc 5514 4bbb 0b33 dfba
000000d0: 6965 cfbb 7851 3d3b e7ed be3b 16ce e63c
000000e0: 3354 0d3c abb0 81bb 8803 b93c 9cb8 9a3b
000000f0: efc0 923c 9b8f b93c 9729 e6bb 34b3 f63a
00000100: bfce 603c 6f75 463c d8d3 0bbc 167f 9e3c
00000110: 85b9 b6bc 6780 8f3b a55a ba3c 24f8 b7bc
00000120: d5d8 55bc 5097 90bc b243 133b 110f 663b
00000130: 8a76 a73b 19a3 0ebc 0387 083c 0b4d e13b
00000140: d271 5e3b 7b39 113c af1f 86bc b94a ae3a
00000150: fb21 353a e001 bb3b 00ee fb3c 4eba d2bb
00000160: 8a8d 7cbb a7ce ac39 22af 343c 8a1e c13b
00000170: 7fba 95bb 8ebe 86bb fac5 873c b9d9 20bc
00000180: 15fb eb3c f2bc b73b 3e34 943c 1bc7 183a
00000190: 6a90 c6bb b5ea 963c ec80 50bc 2434 f5bb
000001a0: 03cd a6bc ea2c 843c 77e0 02bc 8562 ba3b
000001b0: b5e6 01bc 206d d8ba d465 dd3b f772 78bc
000001c0: e0f9 213c af77 8bbc 378e c83b 3166 153d
000001d0: 668d 023c e687 1dbc 8371 14bd 1601 e0bb
000001e0: b7a0 8c3c 5904 6f3d 01e2 8dbb 8e91 f0bb
000001f0: c914 83bc 8eee 2fbc 576b 663c a865 37bc
00000200: e380 ab3b c2b2 0c3d e343 96bc bfe2 923c
00000210: addd 74bc 6605 69bc 6254 f53b 144b a9bc
00000220: 6e0c a2bc f6f6 4aba 87e1 3abb c584 213c
00000230: 6e47 803c 1465 2dbc d683 2cbc ecba 56bc
00000240: 361e fdbb 6da7 c23c fe61 2dbb 1fad 333b
00000250: 3f7a e13b d617 d8bb 18e2 7b3c 0be7 1ebb
00000260: 1142 86bc b8f8 fdbb 34f0 f83b ff4e 6a3c
00000270: ff9d 84bc 8cde 2d3a 775f 833c 0859 5fbc
00000280: 26da 98ba 806c 80ba aca3 fe3b 8b59 3a3b
00000290: aac1 433c 95dd a03c 5260 c7bc e7df 1cbc
000002a0: 8d80 b8bc c488 703c f97c dcba 3939 28bb
000002b0: 6794 3cbc f10b 1abb 8d8d 973b 2d4c feba
000002c0: 2120 e6bc 001c 90bc 2366 1f3c fece 053d
000002d0: b901 9c3c 9b6c 86bc 6768 89bc 2e27 e0bc
000002e0: 42f5 20bb c825 f73c 14f2 1c3c 1614 6fbc
000002f0: b150 073c 7839 9aba e874 7d3c b984 c0bb
00000300: 0fae 963c c373 923c 757b 843c afd4 24bd
00000310: 8c67 19bb 730f 4d3b c7c4 f73b c75f 27ba
00000320: 077b 013d 0d8f 10bc 9058 153b 9a50 0c3c
00000330: 0114 c93c 19c1 3abb 4a23 153b 9733 97bc
00000340: f200 603b 73e8 2ebb 439a 6fbb d37b 233c
00000350: c567 79bc 84bd 143c f35c babc fb32 d8bc
00000360: 3286 1b3c b991 17bc f11e 1d3c 2d4f 59bc
00000370: 0eb2 133c e639 c53b 3956 ddbb 2399 3d3c
00000380: 3be9 79bc a08d 5b3c 7b7f 003c 58be f7bc
00000390: d9cf bfbb 77f8 d2bb d911 6a3c f994 933c
000003a0: d44d 263c 22e2 e4bc fb98 52bc a81d 623b
000003b0: 5d4d 5dbc 5e5d 92bb 6d46 703c db2c e23b
000003c0: 8310 3bbb 8abb 873b af6b 8fbc 1af6 283c
000003d0: e931 bcbc b90a 623c a766 8b3b 91a7 c1bc
000003e0: a189 b639 839f 713b 0c2a 0cbc 4e18 42bc
000003f0: 3320 baba 44ce 0ebc c6a4 28bc 9e14 43bc
-0.023968935 0.011988166 -0.0011452796 -0.015106194 0.007234686 0.010298204 -0.023895953 0.015556798
-0.009333948 0.019598933 0.028526107 -0.035880942 -0.047018174 0.011808699 -0.018279439 0.028208055
-0.025417369 -0.0026906196 0.028069219 0.017660096 -0.0060543325 0.022923011 0.004885549 0.03588454
0.0053732535 0.031074474 0.001122304 0.00235635 0.007265455 -0.0064749527 -0.00069135526 0.011024347
0.031229103 -0.015277965 -0.017587567 -0.0143520525 -0.0016235939 -0.0018820727 0.0063666287 0.005698455
0.0036641567 0.0043830443 0.016374452 -0.015816286 0.028779548 -0.011137272 -0.04058161 0.009997235
-0.0056790425 -0.020828057 -0.003098746 -0.0017028762 -0.0063292277 0.002888767 0.0058267 0.028174441
0.008626032 -0.003957828 0.022584692 0.004721714 0.017914264 0.022651484 -0.007024001 0.0018821717
0.013721167 0.012112959 -0.008534394 0.019347709 -0.02230526 0.0043793204 0.0227483 -0.02245719
-0.013052185 -0.017650276 0.002247077 0.0035104195 0.0051105665 -0.008705878 0.008332971 0.0068756393
0.0033942354 0.008863802 -0.01637253 0.0013297416 0.00069096655 0.0057070106 0.030753136 -0.0064309007
-0.0038536512 0.00032960364 0.011028083 0.005893533 -0.004569351 -0.0041120714 0.016573895 -0.009817534
0.028806249 0.005607241 0.018091317 0.0005828009 -0.006059696 0.018422464 -0.01272605 -0.0074830223
-0.02036143 0.016134698 -0.007988087 0.005688014 -0.00792854 -0.0016512014 0.0067565236 -0.0151641285
0.009886235 -0.017024843 0.006120469 0.03647441 0.007968282 -0.00961492 -0.036241066 -0.006836067
0.017166479 0.058353756 -0.0043299203 -0.00734157 -0.016001122 -0.010738028 0.014063678 -0.01119367
0.0052338704 0.034350164 -0.018342918 0.017930387 -0.01494543 -0.0142224785 0.007486866 -0.020665683
-0.019781318 -0.00077424885 -0.0028515772 0.009858315 0.01565906 -0.010583181 -0.010529479 -0.013106089
-0.0077245487 0.023761475 -0.0026456113 0.002741642 0.006881028 -0.0065946383 0.015373729 -0.00242466
-0.016388925 -0.007750597 0.007596994 0.014301061 -0.01618862 0.00066325883 0.016036732 -0.013632067
-0.0011661693 -0.000979796 0.007770976 0.002843472 0.011948029 0.019636909 -0.024337921 -0.009574867
-0.022522235 0.014681045 -0.0016821913 -0.0025668873 -0.011509991 -0.0023505653 0.0046250285 -0.0019401364
-0.028091492 -0.017591476 0.009728941 0.032668106 0.01904379 -0.016409209 -0.016773416 -0.027362432
-0.0024560248 0.030169383 0.0095792 -0.014592191 0.008258984 -0.0011766395 0.015469767 -0.005875197
0.018393544 0.017877465 0.01617215 -0.040241893 -0.0023407666 0.0031289726 0.0075612995 -0.00063848164
0.03161147 -0.008823168 0.0022788383 0.008564139 0.024545671 -0.0028496443 0.002275663 -0.018457217
0.003418025 -0.0026688843 -0.0036560453 0.009978252 -0.0152224945 0.009078387 -0.0227494 -0.026391497
0.009492444 -0.009251052 0.009589897 -0.013263506 0.0090146195 0.006018865 -0.0067546633 0.011572155
-0.01525336 0.013400465 0.007842894 -0.03024213 -0.005853635 -0.0064383107 0.014286482 0.018015372
0.010150392 -0.02793986 -0.012853856 0.003450254 -0.013507214 -0.0044666966 0.014665228 0.00690232
-0.0028543777 0.0041422294 -0.017507402 0.010312581 -0.022973018 0.013796502 0.0042541805 -0.023639472
0.00034816287 0.0036868758 -0.008554947 -0.011846615 -0.001420027 -0.00871617 -0.010293191 -0.011906771

action_net.bias f4 [4]
00000000: 54f8 34bc dd6d f5bc 2e54 f2ba 1e0a 87bb
-0.011045534 -0.029959613 -0.0018488222 -0.004121079
