Godot_Reinforcement_Learning-main/Examples/Shooter_AI/final_model1.onnx (onnx, 25045 bytes, 6 tensors)

mlp_extractor.policy_net.0.weight f4 [64, 21]
0	0xbdd8d426	-0.10587339
1	0xbd862a38	-0.06551021
2	0xbe74f4da	-0.23921528
3	0xbd34d8c7	-0.044152047
4	0xbe32fb3d	-0.17478652
5	0x3ba2d440	0.00496915
6	0x3d34fd2b	0.044186752
7	0xbd85eb4f	-0.06539022
8	0xbd72c3cb	-0.059268754
9	0xbe5bd78c	-0.21468943
10	0x3d9f57e4	0.07780436
11	0xbd5bf76b	-0.053702753
12	0x3de9f1b1	0.11423052
13	0xbe0df724	-0.13863808
14	0xbcb5237c	-0.022111647
15	0x3d9f3734	0.07774201
16	0xbec50a29	-0.38484314
17	0x3b5269e4	0.0032106573
18	0x3e3638ac	0.17795056
19	0x3e7a4173	0.2443903
20	0xbe40b653	-0.18819551
21	0xbe01c856	-0.12674078
22	0xbe723ee6	-0.23656806
23	0xbde7c94f	-0.113176934
24	0xbe42b1c8	-0.1901313
25	0x3df29c71	0.11846245
26	0x3df59f9d	0.119933344
27	0xbb987310	-0.0046523884
28	0xbe32119d	-0.17389531
29	0xbe8cc6ca	-0.27495414
30	0xbd9717b2	-0.073775664
31	0xbe766e59	-0.24065532
32	0xbe9840be	-0.29736894
33	0x3e784bba	0.24247637
34	0xbd20226f	-0.03909534
35	0xbeaa062a	-0.33207828
36	0xbec5958e	-0.38590664
37	0x3e2ce426	0.16883907
38	0x3d4a9fd0	0.049468815
39	0xbeb7241e	-0.35769743
40	0x3ded4867	0.11586075
41	0x3e8cbb69	0.27486733
42	0x3e8ebd79	0.2787893
43	0x3e5c2db8	0.21501815
44	0xbe823a10	-0.25434923
45	0x3bc43637	0.005987908
46	0x3d789b8c	0.060695216
47	0x3df34ea5	0.11880235
48	0x3d159a08	0.03652385
49	0xbdb30681	-0.08741475
50	0x3da1dfc0	0.07904005
51	0xbe820d31	-0.2540069
52	0x3eb4725c	0.352435
53	0xbe178502	-0.14796832
54	0x3cec7a54	0.028866924
55	0x3e2d5b2f	0.16929315
56	0x3e4d4040	0.2004404
57	0x3dffaf72	0.124846354
58	0xbdc7790a	-0.09739883
59	0x3e88ab59	0.26693228
60	0x3e553d23	0.20824103
61	0x3d64db0a	0.055872954
62	0xbe222454	-0.1583417
63	0x3e6100cd	0.21972962
64	0x3d289a6c	0.041162893
65	0x3d798228	0.060915142
66	0x3c96120c	0.018319152
67	0x3d700e31	0.058607284
68	0x3ddebc2d	0.108757354
69	0x3e360893	0.17776708
70	0xbe0d807d	-0.13818546
71	0xbe353363	-0.17695384
72	0x3e5da9ab	0.21646754
73	0xbec46eaa	-0.3836568
74	0xbe20aba4	-0.15690476
75	0xbc6b4054	-0.014358599
76	0x3b5dbfde	0.0033836286
77	0xbdf4c14b	-0.1195093
78	0x3e250499	0.16115035
79	0xbd12c34b	-0.035830777
80	0x3dc35c66	0.09539108
81	0x3df3ea18	0.11909884
82	0x3e961458	0.29312396
83	0x3e731a84	0.23740584
84	0xbe0ba9d6	-0.13639006
85	0xbe446161	-0.19177772
86	0x3ce58fc9	0.028022664
87	0xbe592b76	-0.21207985
88	0x3aa2a50a	0.0012408805
89	0xbd028f9b	-0.031875234
90	0xbe697e14	-0.22802001
91	0xbea9ce6c	-0.331653
92	0xb8a19508	-7.7048375e-05
93	0x3e8d167c	0.27556217
94	0xbe4b6388	-0.19862187
95	0xbda54fe4	-0.080718786
96	0xbe8f8279	-0.2802923
97	0xbd6f7a55	-0.058466274
98	0x3da82b81	0.08211423
99	0x3d448530	0.04797858
100	0x3d25c6fe	0.040472977
101	0x3e23f1ac	0.16010159
102	0x3e31123e	0.17292115
103	0xbd9b8494	-0.07593647
104	0xbe2869bb	-0.16446583
105	0xbe2e6403	-0.17030339
106	0xbe1a2f5c	-0.15057129
107	0xbe55b5d4	-0.20870143
108	0xbeccc0fb	-0.39990982
109	0xbe048650	-0.12941861
110	0x3e9d83a6	0.30764502
111	0x3e701cb8	0.23448455
112	0x3e38bf5c	0.18041748
113	0x3e1ae1a5	0.15125139
114	0x3e250c48	0.16117966
115	0x3e567b62	0.20945504
116	0x3ce2b40d	0.027673746
117	0xbdc19bf4	-0.09453574
118	0xbe23c9e3	-0.15994982
119	0xbd09e6a5	-0.033667225
120	0x3e2ed642	0.1707392
121	0x3e47ac2f	0.19499277
122	0xbd3a9538	-0.045552462
123	0x3eb089fc	0.34480274
124	0x3e9c050f	0.3047261
125	0x3e63322e	0.22187111
126	0x3e5a91a1	0.21344616
127	0x3ea45f71	0.32104066
128	0x3e061ff8	0.13098133
129	0x3e5d9be4	0.21641499
130	0xbcef558b	-0.029215595
131	0x3ddac26c	0.10681614
132	0xbd9499f0	-0.07255924
133	0xbdd45b90	-0.10369027
134	0x3b4d6ed8	0.0031346586
135	0xbd23ca7c	-0.039988026
136	0x3d205a33	0.03914852
137	0xbe025244	-0.12726694
138	0x3e960dd9	0.2930744
139	0x3e332bb6	0.17497143
140	0xbdbcb38a	-0.09213932
141	0x3d2d0090	0.042236865
142	0x3c5282ea	0.012848595
143	0xbd04542e	-0.032306843
144	0xbd76970c	-0.060202643
145	0x3e63ec15	0.22258027
146	0x3e704ed7	0.23467575
147	0x3dbaac12	0.09114851
148	0x3d85bb4f	0.06529867
149	0xbe45de8f	-0.1932318
150	0xbe163844	-0.14669901
151	0x3cb2f116	0.021843474
152	0xbec1fae9	-0.37886742
153	0xbd56dc0e	-0.052455954
154	0x3de1c981	0.11024762
155	0xbe0a9295	-0.13532479
156	0xbe93656c	-0.28788316
157	0xbe20ba26	-0.1569601
158	0xbdc06991	-0.09395135
159	0xbd823bcd	-0.06359062
160	0xbd7adc44	-0.061245218
161	0x3dbc36d1	0.09190143
162	0x3dcb110d	0.099153616
163	0xbd6db54c	-0.058034226
164	0x3e417a98	0.18894422
165	0xbc8c995b	-0.01716297
166	0xbeab2c58	-0.3343227
167	0x3dad7ddc	0.084712714
168	0xbe2bfae7	-0.1679493
169	0xbd12d8f6	-0.03585144
170	0xbdecea0b	-0.11568078
171	0x3e3c9a39	0.18418206
172	0x3c456fb3	0.012050557
173	0x3e8f367b	0.27971253
174	0xbd935bc9	-0.07195241
175	0xbec0cf76	-0.3765828
176	0xbd66d56f	-0.05635589
177	0x3d9b2940	0.07576227
178	0xbe06f268	-0.13178408
179	0xbc40a71c	-0.011758592
180	0x3e2cef53	0.1688817
181	0x3eb2068a	0.34770614
182	0x3ea978a8	0.33099866
183	0xbdfd1035	-0.12356607
184	0x3cd950fa	0.02652787
185	0xbcc9f28d	-0.02465179
186	0x3c3c96b5	0.011510541
187	0xbed26d95	-0.4109923
188	0xbe27a280	-0.16370583
189	0xbe5fd570	-0.21858764
190	0xbdd52bdf	-0.10408758
191	0xbf0a3400	-0.53985596
192	0xbd923ed2	-0.07140888
193	0x3e3428f1	0.17593743
194	0x3d86aaa8	0.06575519
195	0xbe61749d	-0.2201714
196	0xbd477f29	-0.048705254
197	0x3e23148b	0.15925805
198	0x3d6dea63	0.058084857
199	0xbea3f01a	-0.3201912
200	0x3e25e92e	0.16202232
201	0xbda709c1	-0.08156157
202	0x3db47eaa	0.08813222
203	0xbdb71590	-0.089396596
204	0x3e27402e	0.16333076
205	0xbd100b46	-0.035167
206	0xbc64c043	-0.013961854
207	0x3d1df222	0.038560994
208	0xbe01f78d	-0.1269209
209	0x3cd0378c	0.025417112
210	0xbdc93a90	-0.09825623
211	0xbe4db0c8	-0.20086968
212	0xbe76c08c	-0.24096888
213	0xb9ac686f	-0.00032884206
214	0xbde9f886	-0.11424355
215	0xbd976186	-0.07391648
216	0x3dec47c9	0.115371294
217	0x3c186d3e	0.009303389
218	0xbe34ce80	-0.17656898
219	0xbe7b29f2	-0.2452772
220	0x3d8836be	0.06651066
221	0x3dd6e8b1	0.10493601
222	0x3df61059	0.12014837
223	0x3dd1ee9b	0.102505885
224	0xbdcd39d8	-0.100207984
225	0x3e3f0a1e	0.18656203
226	0x3e55569a	0.20833817
227	0xbe5c0fbf	-0.21490382
228	0xbbedf93c	-0.007262377
229	0x3d90f8ea	0.070787266
230	0x3db6cb86	0.08925538
231	0x3ceaebec	0.02867695
232	0xbb41896b	-0.002953137
233	0x3e01435e	0.12623355
234	0x3d86ae6b	0.06576236
235	0xbe1c87f0	-0.15286231
236	0x3e3d4f7b	0.1848735
237	0x3d8cab6c	0.06868634
238	0xbcdc3167	-0.026879026
239	0xbe538112	-0.20654705
240	0xbea1983b	-0.31561455
241	0x3ddf7ab6	0.10912077
242	0xbda22043	-0.0791631
243	0xbe14cb49	-0.14530672
244	0xbe02edc7	-0.12786017
245	0xbec831b4	-0.3910042
246	0xbc5f4175	-0.013626446
247	0xbe0727e4	-0.13198811
248	0xbc2b5112	-0.01045634
249	0xbdd5e685	-0.10444359
250	0xbe978a1e	-0.29597563
251	0x3e79f239	0.24408807
252	0x3e1eddaf	0.15514253
253	0xbdfbcdae	-0.1229509
254	0xbc7b088e	-0.015321864
255	0xbe0eca13	-0.13944273

mlp_extractor.policy_net.0.bias f4 [64]
0	0xb7e5b0f0	-2.738132e-05
1	0xb8884d74	-6.499412e-05
2	0x370e8aee	8.496207e-06
3	0x39a24279	0.00030948574
4	0xb9bf59d2	-0.0003649728
5	0xb9329a43	-0.0001703287
6	0xb9126eb3	-0.00013964884
7	0xb9687e88	-0.0002217238
8	0x393be80f	0.00017920158
9	0x38bbb5b7	8.950702e-05
10	0xb9a48c90	-0.00031385245
11	0x37d40636	2.5275262e-05
12	0x381ac2ac	3.6897763e-05
13	0x387f97c6	6.0938088e-05
14	0x39732614	0.00023188471
15	0x38cea3b0	9.8533346e-05
16	0xb91b90bb	-0.00014835868
17	0xb82b519c	-4.084558e-05
18	0xb8bfa9e9	-9.139238e-05
19	0xb9e75894	-0.0004412575
20	0xb9c74757	-0.0003800939
21	0x390bac54	0.0001332027
22	0x370d2368	8.412499e-06
23	0x3a0f850a	0.00054748415
24	0x3ab4d40c	0.0013796105
25	0xb9a8993a	-0.0003215762
26	0xb958cc97	-0.00020675581
27	0x372aa5c0	1.0171381e-05
28	0xb9baefde	-0.000356554
29	0xba9c2d07	-0.0011915275
30	0x399b4b85	0.0002962017
31	0x3943a421	0.00018657792
32	0x393c7f4f	0.00017976503
33	0xba0212ff	-0.0004961937
34	0xb7fdd51a	-3.0259183e-05
35	0x3932646a	0.0001701281
36	0x3971e660	0.00023069372
37	0x386fd05b	5.7176087e-05
38	0xb70d2566	-8.412962e-06
39	0xba22f103	-0.0006215723
40	0x39ef431a	0.00045635627
41	0x3901d5c2	0.0001238203
42	0xb9e7a239	-0.0004418062
43	0xb99e1584	-0.0003015214
44	0xb8d4d737	-0.00010149035
45	0xb71b9fd3	-9.275932e-06
46	0x385d3f03	5.274919e-05
47	0xb89a5e36	-7.3608404e-05
48	0xb7ae5619	-2.0782509e-05
49	0x3914e8e9	0.00014201146
50	0x39592916	0.00020710038
51	0xb7bc0ccb	-2.2417304e-05
52	0xb8509ee8	-4.9739057e-05
53	0x3987386e	0.0002579125
54	0xb8982968	-7.255637e-05
55	0x388cff6a	6.723295e-05
56	0xb8a82fe3	-8.019784e-05
57	0x38ed0b7a	0.00011303178
58	0x38f0a1c6	0.000114742244
59	0x38800f2f	6.106344e-05
60	0x3974e9da	0.0002335677
61	0x3965475d	0.00021865727
62	0xba1b152e	-0.0005915937
63	0x3871c7cf	5.7644964e-05

mlp_extractor.policy_net.2.weight f4 [64, 64]
0	0xbd30603d	-0.04306053
1	0x3e1e2a6a	0.15445867
2	0x3ed7f3b4	0.42178118
3	0x3e1ab918	0.1510967
4	0x3eaf78ee	0.3427195
5	0xbe81cbc0	-0.2535076
6	0x3c42a838	0.011880927
7	0xbe28a979	-0.16470899
8	0xbd06c930	-0.03290671
9	0x3cfaab93	0.030599391
10	0x3cee4df5	0.029089907
11	0xbd5a835c	-0.05334793
12	0x3e54707c	0.20746034
13	0x3d340cb5	0.04395743
14	0xbe1e1a95	-0.15439828
15	0xbece75f6	-0.40324372
16	0x3e945bc2	0.28976256
17	0xbe1f9aec	-0.15586442
18	0xbe5dd80d	-0.21664448
19	0x3c76e30d	0.015068782
20	0x3be81da8	0.0070836134
21	0xbd958966	-0.07301597
22	0x3cd3e251	0.025864752
23	0xbdc0a512	-0.09406485
24	0x3c1c5263	0.009541127
25	0x3d81e8eb	0.06343254
26	0x3ee98ba6	0.45614356
27	0x3e155990	0.14584947
28	0x3e1ffc17	0.15623508
29	0x3dc957b0	0.09831178
30	0x3e4e405a	0.20141736
31	0xbcf2f368	-0.02965708
32	0xbd571aab	-0.052515667
33	0xbe8485a9	-0.25883225
34	0xbd9c4b35	-0.07631532
35	0x3d7c2bac	0.061565086
36	0x3e2ee0a4	0.17077881
37	0x3e21f971	0.1581781
38	0x3e0be3b8	0.13661087
39	0x3cbe1d12	0.023207221
40	0xbd2387b4	-0.03992434
41	0xbddf04c6	-0.10889582
42	0x3e19c624	0.15016991
43	0x3db0b7dc	0.086288184
44	0xbdd36432	-0.10321845
45	0x3e62be6b	0.22142951
46	0xbe5d7028	-0.21624815
47	0xbe0864d4	-0.13319713
48	0x3e0041a9	0.12525047
49	0x3db70c63	0.089379095
50	0x3c1f5961	0.009725899
51	0xbe5f7604	-0.21822363
52	0xbdbc61a6	-0.091983125
53	0xbe06bf47	-0.13158904
54	0xbe2eb8b1	-0.17062642
55	0xbeb2a87a	-0.34894162
56	0x3c97ceac	0.018531166
57	0xbd3c2ba8	-0.04594007
58	0xbe0dbf49	-0.13842501
59	0xbe272911	-0.1632426
60	0x3e4e7f9a	0.20165864
61	0xbe7b5528	-0.24544203
62	0x3ab8d40f	0.0014101284
63	0x3eb7605b	0.358157
64	0xbd9d0972	-0.07667817
65	0xbbda9484	-0.0066705365
66	0x3e59733f	0.21235369
67	0xbe81224d	-0.25221482
68	0xbe31c6e3	-0.17361026
69	0xbcd0048a	-0.02539279
70	0x3e0c3a99	0.13694228
71	0x3e91410f	0.28369948
72	0xbea945da	-0.33061105
73	0xbd6bf65b	-0.05760799
74	0x3d2cea9e	0.042215936
75	0x3de51588	0.111857474
76	0xbe60ae21	-0.21941425
77	0x3bcabd06	0.006187084
78	0x3de624cd	0.11237488
79	0x3e12abfd	0.14323421
80	0x3e3a37e4	0.18185383
81	0xbe995d5b	-0.29954037
82	0x3e82c5fc	0.25541675
83	0xbe06c4ef	-0.13161062
84	0xbd02e8f4	-0.031960443
85	0x3cf8095a	0.030277897
86	0x3de4e29c	0.11176035
87	0xbe60fda6	-0.21971759
88	0xbe41a6fa	-0.18911353
89	0xbe15b931	-0.14621426
90	0x3db92a3b	0.09041258
91	0xbd0afb2f	-0.033930954
92	0x3e51ba77	0.20481287
93	0xbe4df029	-0.20111145
94	0x3e89b0d9	0.26892737
95	0xbea7634a	-0.3269294
96	0x3cd54161	0.026032152
97	0x3e6393d8	0.22224367
98	0x3dac2233	0.084049605
99	0x3d8ea681	0.06965352
100	0xbc903c70	-0.017606944
101	0x3da7dd17	0.081964664
102	0xbdd579df	-0.10423636
103	0x3d818fd4	0.06326261
104	0xbe763155	-0.24042256
105	0xbe1e5f62	-0.15466073
106	0x3e242a39	0.16031732
107	0x3dd36a43	0.10323002
108	0xbda16401	-0.07880402
109	0x3d32c4db	0.043644767
110	0xbe186e8f	-0.14885925
111	0x3e6b48ed	0.22977038
112	0xbbb0a96d	-0.005391291
113	0x3d83128b	0.06400021
114	0xbd860e81	-0.06545735
115	0xbeba7ebe	-0.36424822
116	0xbcf71045	-0.030159125
117	0x3e4418b7	0.19150053
118	0x3ec3a0ca	0.3820861
119	0xbea71423	-0.3263255
120	0xbdf38fe1	-0.11892677
121	0x3dbecd2e	0.09316479
122	0x3e9f53a9	0.31118515
123	0x3c05686b	0.008142571
124	0xbd8565fd	-0.06513593
125	0x3e8a29d8	0.2698505
126	0xbe53072a	-0.20608202
127	0x3baaa246	0.005207333
128	0x3d8f55d5	0.06998793
129	0x3dcc1f46	0.099669024
130	0x3e06b774	0.1315592
131	0x3ea8c909	0.32965878
132	0xbe4303e4	-0.19044453
133	0x3e05c51b	0.13063471
134	0xbc5183ce	-0.012787772
135	0xbdb7fa0c	-0.089832395
136	0xbe22ca91	-0.15897585
137	0x3e9da053	0.3078638
138	0xbd329b15	-0.04360493
139	0x3d794c2e	0.060863666
140	0x3ea4cba9	0.3218663
141	0x3e6a09a6	0.22855243
142	0xbe1ad6cb	-0.15121
143	0x3cb330f6	0.021873932
144	0x3d4c3d45	0.04986312
145	0xbe0b2881	-0.1358967
146	0x3da814a9	0.082070656
147	0x3d8cacdf	0.0686891
148	0x3e08e277	0.1336764
149	0x3e1beb75	0.15226538
150	0x3c8769f4	0.016530015
151	0x3e12c150	0.14331555
152	0xbe9b74e3	-0.30362615
153	0x3d991e36	0.074764654
154	0xbe4d5286	-0.20051011
155	0xbe0776ea	-0.13228956
156	0xbdf941cf	-0.12170755
157	0xbea8f6b1	-0.3300071
158	0x3d86cc1a	0.06581898
159	0xbeef83a5	-0.46780124
160	0xbdd0bb82	-0.10192014
161	0xbdb87164	-0.090060025
162	0x3ce5e904	0.028065212
163	0xbd5f60be	-0.05453562
164	0xbd31a5d1	-0.043371025
165	0x3eb06299	0.34450224
166	0x3e00cd52	0.12578323
167	0x3e1abc5b	0.15110914
168	0xbdbf1410	-0.093299985
169	0x3dc74f0e	0.09731875
170	0xbc6fd8fc	-0.014639135
171	0xbc80f21d	-0.015740449
172	0x3e5c34dc	0.21504539
173	0xbe240acf	-0.16019748
174	0xbe7b5824	-0.24545342
175	0x3dec4379	0.11536307
176	0xbd7a988b	-0.061180633
177	0x3e19f095	0.15033181
178	0x3d37c8c8	0.044869214
179	0xbe1308af	-0.14358781
180	0xbd414102	-0.047181137
181	0x3c73401f	0.014846831
182	0xbc9451bb	-0.018105378
183	0x3f12e5a9	0.57381684
184	0x3d912e03	0.07088854
185	0x3dc359a4	0.09538582
186	0xbe573844	-0.21017557
187	0xbe50b9c8	-0.2038337
188	0xbd90af56	-0.07064693
189	0xbe56e12f	-0.20984338
190	0xbe372f05	-0.1788903
191	0x3be32b9e	0.00693269
192	0x3e39f1e3	0.18158679
193	0x3eb7b23c	0.3587817
194	0x3d33d11c	0.043900594
195	0xbda0a831	-0.0784458
196	0xbe4d8d36	-0.20073399
197	0xbe562e4b	-0.20916097
198	0xbddeb950	-0.10875189
199	0x3cc69dbc	0.024245135
200	0xbe509d29	-0.20372452
201	0x3d435993	0.047692847
202	0x3b855521	0.004068986
203	0xbdcc26ac	-0.099683136
204	0xbe8366b4	-0.25664294
205	0x3e32939a	0.17439118
206	0xbe6fb49f	-0.23408745
207	0x3ed803e5	0.4219047
208	0x3e390680	0.18068886
209	0xbe6e3753	-0.23263292
210	0x3cb2d401	0.021829607
211	0xbddbcd18	-0.10732478
212	0x3e5cfc99	0.21580733
213	0x3e092cf4	0.13396055
214	0xbe8399a1	-0.25703147
215	0xbdf84546	-0.12122588
216	0xbe10462a	-0.14089265
217	0xbc673a7a	-0.014113063
218	0xbddde2e0	-0.108342886
219	0xbdb76a81	-0.08955861
220	0xbe672ba4	-0.22575241
221	0x3c8b334c	0.016992234
222	0xbe00572f	-0.12533258
223	0x3dbcdf06	0.09222226
224	0x3da50183	0.08056929
225	0xbe3e8119	-0.18603934
226	0xbe706a43	-0.23478036
227	0x3e8da2b6	0.276632
228	0xbdbb8cac	-0.091576904
229	0x3c4008e0	0.011720866
230	0x3ba3a59d	0.004994108
231	0x3e13bd32	0.14427641
232	0x3eac7793	0.33684978
233	0x3e7df473	0.24800281
234	0xbcbb0d79	-0.022833573
235	0xbe0ef2d5	-0.1395982
236	0xbde5fb04	-0.11229518
237	0xbd81e74e	-0.06342946
238	0x3d8cd51a	0.068765834
239	0x3e2fa5db	0.17153113
240	0xbe224a25	-0.15848596
241	0xbd84a5e5	-0.06476954
242	0x3cd83661	0.026393117
243	0x3c41cbcd	0.011828375
244	0x3e16403c	0.14672941
245	0xbe0a175d	-0.13485475
246	0x3d7d05f2	0.061773248
247	0xbeccf42b	-0.40030035
248	0xbe23d2bc	-0.15998358
249	0xbeac3c8b	-0.3363994
250	0xbea448ed	-0.32086888
251	0xbd312603	-0.04324914
252	0x3cc76aae	0.024342861
253	0xbe3d14f2	-0.18465021
254	0x3e510c6e	0.20414898
255	0xbcf74968	-0.03018637

mlp_extractor.policy_net.2.bias f4 [64]
0	0xba929086	-0.0011181987
1	0xba577446	-0.0008218925
2	0xbd04bb54	-0.032405213
3	0x3c358536	0.011079123
4	0x3a0a8d6c	0.0005285356
5	0x3b46b16d	0.0030318156
6	0x3ca6cfb8	0.02036272
7	0x3c2eadbb	0.010661538
8	0xbb4652ec	-0.0030261828
9	0x3a309690	0.0006736303
10	0x3b30b517	0.0026963407
11	0x3c14d8cb	0.009084891
12	0xbb53ce66	-0.0032319068
13	0xbd0f86e4	-0.03504075
14	0xbcbf9948	-0.02338852
15	0x3c781bcc	0.015143346
16	0x3be6f391	0.0070480783
17	0x3c9ea88f	0.019367484
18	0x3cbe0ed3	0.023200428
19	0xbc4216e4	-0.011846278
20	0x3cb4d4ac	0.022074066
21	0x3c19b7c2	0.00938219
22	0xbc3fc8a3	-0.01170555
23	0x3c068515	0.00821044
24	0x3c671d5e	0.014106123
25	0x3bed1c9b	0.007236076
26	0x3b1cec41	0.002394453
27	0x3cb0c21e	0.021576937
28	0xbd001186	-0.03126671
29	0x3c12dc77	0.008963696
30	0x3bc00c55	0.005860845
31	0x3bf51174	0.007478887
32	0xbc1d87de	-0.009614913
33	0xbc31ee9a	-0.01086011
34	0x3bbc2110	0.005741246
35	0xbd2c7a10	-0.042108595
36	0xbabedc47	-0.0014561497
37	0x3aa6f973	0.0012739137
38	0x3b4705f6	0.0030368543
39	0x3c4b0314	0.012390871
40	0xbaf3841e	-0.0018578803
41	0x3c482256	0.012215218
42	0xbb98cda9	-0.0046631885
43	0x3bb7aac3	0.005605073
44	0xbb6d3c9d	-0.0036199458
45	0xbc75c187	-0.014999754
46	0xbb8bd067	-0.004266787
47	0x3b1fe332	0.0024396894
48	0xbbd4e9f0	-0.006497614
49	0x3b5658e9	0.0032706803
50	0xbbed001d	-0.0072326795
51	0x3b5cdf15	0.0033702303
52	0x3b583907	0.0032992975
53	0x3be90159	0.0071107564
54	0x3b524e15	0.0032089998
55	0xbd0f73ca	-0.035022534
56	0xbbf0ec97	-0.0073524225
57	0x3a360d3c	0.0006944721
58	0xbc8fc3ec	-0.017549478
59	0x3986a086	0.0002567807
60	0x3960397e	0.00021383722
61	0xbc574b2f	-0.013140484
62	0x39c58504	0.00037673872
63	0xbaa429d9	-0.0012524679

action_net.weight f4 [4, 64]
0	0x3ba2ba45	0.0049660527
1	0xbc7016c6	-0.014653867
2	0xbc846e02	-0.016165737
3	0x3be5d0b7	0.007013406
4	0x3c3c8737	0.011506847
5	0xbd1de28b	-0.038546126
6	0x3c82b75f	0.015956579
7	0x3bc49611	0.0059993346
8	0x387dd633	6.051939e-05
9	0xba0dbbd1	-0.000540671
10	0xbbbf862e	-0.005844853
11	0xbc3e4b61	-0.011614651
12	0xbc48020b	-0.012207518
13	0xbce5bc65	-0.028043935
14	0xbc51a1a0	-0.012794882
15	0x3a2d3c6f	0.00066084316
16	0xbc658330	-0.014008328
17	0xbb919c64	-0.004443692
18	0x3c2e7515	0.010648032
19	0x3c34c787	0.011033899
20	0x3c9679ac	0.018368565
21	0xbc19b2b1	-0.009380982
22	0xbc3decff	-0.011592149
23	0x3c326202	0.010887625
24	0x3ae21c89	0.0017250936
25	0x3cf5c9b3	0.030003404
26	0xbc0ddd08	-0.008658655
27	0xbbd82c81	-0.006597102
28	0xbc18721b	-0.009304549
29	0x3bc8ddfe	0.006129979
30	0xbc142627	-0.009042299
31	0xbba76634	-0.005108619
32	0xbbacb971	-0.00527113
33	0xbd0d7863	-0.034538638
34	0x3a68f5aa	0.00088867045
35	0xbb866d10	-0.0041023567
36	0xbca69cc2	-0.02033842
37	0x3c46e892	0.01214041
38	0xbb0434b4	-0.0020173015
39	0xbca663ab	-0.020311197
40	0x3b7681e6	0.0037614047
41	0xbc846208	-0.016160026
42	0xbc6984cf	-0.014252855
43	0xbc77fa4e	-0.015135361
44	0x3cac9008	0.021064773
45	0xba862f4d	-0.0010237485
46	0xbadd0c22	-0.0016864578
47	0xbc0bea21	-0.008539707
48	0x3c1b2a10	0.009470478
49	0x3c8aa6eb	0.016925296
50	0x3c1f559c	0.009725001
51	0x3aa1ec7c	0.0012353803
52	0xbc8b828a	-0.01703002
53	0x3be7f2b9	0.0070784953
54	0x3c86b728	0.016444758
55	0xbca8d587	-0.02060963
56	0x3b6822e4	0.0035421187
57	0x3c05b70d	0.0081613185
58	0x3c600f8b	0.013675581
59	0x3cf4a618	0.029864356
60	0xbbc51110	-0.006013997
61	0xbb3bf5dd	-0.0028680481
62	0xbc6f69f4	-0.014612664
63	0xbc5961fc	-0.01326799
64	0x3b7dd1a1	0.0038729685
65	0x3bc5d4ae	0.0060373163
66	0x3c527572	0.012845384
67	0x3be25f8a	0.006908362
68	0xbc88abe0	-0.016683519
69	0xbd154e5e	-0.03645169
70	0xbcd9a9fd	-0.026570315
71	0x3b8940ac	0.0041886177
72	0xbc32dace	-0.010916425
73	0x3aa5a085	0.001263634
74	0x3c6bda70	0.014395341
75	0x3c15a035	0.009132435
76	0xbb16dc5f	-0.0023019535
77	0xba9eda6d	-0.0012119539
78	0xbbe5793a	-0.0070029767
79	0xbab55940	-0.0013835803
80	0xbc5c6556	-0.013451895
81	0xbc9b94d4	-0.018991865
82	0xbc1ba7d8	-0.009500466
83	0x3c448b49	0.011996099
84	0x3c9016fb	0.017589083
85	0xbc551a92	-0.013006823
86	0xbc3fa7f1	-0.011697755
87	0x3c47f8ae	0.012205286
88	0xbc9f818a	-0.019470949
89	0x3bd64175	0.006538565
90	0xbc8047cd	-0.015659237
91	0xbb77eab0	-0.0037829094
92	0x3a8c640f	0.0010710972
93	0x3c36b18b	0.011150728
94	0xbbc088ad	-0.005875668
95	0xbc406241	-0.011742176
96	0xbb1f0595	-0.0024264802
97	0x3c7eede8	0.015559651
98	0x3a6acb84	0.0008956718
99	0x3b47efb7	0.0030507871
100	0xbb1a653c	-0.0023558876
101	0x3c9933c7	0.018701447
102	0x3c3adbe6	0.011404967
103	0xb92ac96c	-0.00016287499
104	0x3c6be2b0	0.014397308
105	0xb9ea84da	-0.0004473094
106	0xbbbf2afe	-0.0058339825
107	0xbc8c62cc	-0.017136954
108	0x3c30a7e5	0.010782217
109	0x3c44fe9c	0.012023594
110	0xbcd21073	-0.02564261
111	0xbc791774	-0.015203346
112	0xbd0aaafa	-0.033854462
113	0xbc37964b	-0.011205266
114	0x3c988c8a	0.018621702
115	0x3c4bed76	0.012446752
116	0xbc06d908	-0.008230455
117	0xbb2bc8b8	-0.0026212167
118	0x3b3c4dc9	0.0028732887
119	0x3d085537	0.033284392
120	0x3c0c3de9	0.008559682
121	0x3c10ba63	0.008833501
122	0x3c0db287	0.008648521
123	0xbc3cce55	-0.011523803
124	0x3d021f5e	0.031768195
125	0x3c7d8965	0.015474652
126	0x3d0bcd59	0.03413138
127	0xbb7a9cd3	-0.0038240447
128	0x39a6420c	0.00031711196
129	0x3acf7a62	0.001582932
130	0x3cc2f68d	0.023799205
131	0xbd0f4da3	-0.03498615
132	0xbcc4af6e	-0.024009433
133	0xbb276a26	-0.0025545447
134	0xbc460c49	-0.01208789
135	0xbd51b5cc	-0.051198766
136	0xbcf05695	-0.02933816
137	0x3b94961e	0.004534497
138	0x3d03063a	0.03198836
139	0x3cfe7f94	0.031066693
140	0x3d04c2cb	0.03241233
141	0x3bb6f3ca	0.005583261
142	0x3d2b7a48	0.041864663
143	0x3d04b1fd	0.032396305
144	0x3c4e5582	0.012593629
145	0xbd3c12ce	-0.04591637
146	0x3cbbc2cf	0.02292004
147	0xbc6328ef	-0.01386474
148	0xb8b3addc	-8.567769e-05
149	0x3cb74522	0.022371832
150	0x3d0a4ee1	0.03376663
151	0x3c5b66d2	0.0133912135
152	0xbcb574b3	-0.022150373
153	0xbc4a6d9f	-0.012355237
154	0x3a475845	0.0007604401
155	0x3d0ed91e	0.034875028
156	0xbc63c4e0	-0.013901919
157	0x3c7acf0b	0.015308152
158	0x3cb568d3	0.02214471
159	0x3b4936f9	0.0030702932
160	0xbc387027	-0.011257208
161	0x3d3703ed	0.04468148
162	0x3cc1bf91	0.023650916
163	0x3b123b05	0.002231301
164	0x3cf3a042	0.029739503
165	0x3b8a9d19	0.0042301533
166	0x3d186ac2	0.037211187
167	0x3c45e440	0.012078345
168	0x3b2033fb	0.0024445045
169	0x3c9ec269	0.019379811
170	0x3d22a8b8	0.039711684
171	0x3c9b6a62	0.018971626
172	0xbcb768c6	-0.022388827
173	0xbcf383ce	-0.029725935
174	0xbc4cb2e3	-0.012493822
175	0x3cd18a39	0.025578605
176	0xbcf49de9	-0.029860454
177	0xbd34a337	-0.044100966
178	0xbb8e3f84	-0.0043410677
179	0x3d011074	0.03150983
180	0x3c971628	0.018443182
181	0xbd03d6ff	-0.032187458
182	0xbd034179	-0.03204486
183	0xbc906a55	-0.017628828
184	0x3afd77c0	0.0019338056
185	0xbcbffb07	-0.023435129
186	0xbce75f9f	-0.028243838
187	0xbd0bb519	-0.034108255
188	0x3d1af73e	0.037833445
189	0xbc6618e6	-0.014044022
190	0xbcc133a4	-0.023584194
191	0xbb70999a	-0.0036712647
192	0x3c1a9afa	0.009436363
193	0xbc8d37c2	-0.017238501
194	0xbcf86c2a	-0.030325014
195	0x3bd289b1	0.0064251055
196	0xbc4f7741	-0.01266271
197	0x3cefd1e7	0.029274894
198	0x3c6837fc	0.014173504
199	0x3b200302	0.0024415855
200	0xbc7dac81	-0.015483023
201	0x3cb1b239	0.021691428
202	0x3c7d3b92	0.015456097
203	0x3c314723	0.010820183
204	0x3a6ffba7	0.00091546256
205	0xbd3fd6ee	-0.046835832
206	0xbc8d968e	-0.017283704
207	0x3bd65167	0.0065404656
208	0xbbef3c3c	-0.0073008817
209	0x3c8e6a10	0.017384559
210	0x3c4038fc	0.011732336
211	0x3bcbc498	0.006218504
212	0x3cd758b7	0.02628742
213	0xbb575f57	-0.0032863223
214	0xbc646036	-0.013938954
215	0x3c6f5248	0.01460702
216	0x3c32e6ff	0.010919332
217	0x3c2dfa20	0.0106187165
218	0xbbbf1cb4	-0.005832279
219	0x3cd6ae48	0.02620615
220	0xbcd76bcb	-0.026296517
221	0x3cde8edb	0.027167728
222	0xbbe3634c	-0.0069393273
223	0xbc2c4a27	-0.010515726
224	0xbcc52e68	-0.02406998
225	0x3bbde2a8	0.005794842
226	0x3be68ffc	0.0070362072
227	0xbd0a8128	-0.03381458
228	0xbc8e9671	-0.01740572
229	0xbcb0496f	-0.02151939
230	0x3c5c84c8	0.013459392
231	0xbc4086e6	-0.011750912
232	0x3c019f17	0.007911465
233	0xba68ee86	-0.00088856404
234	0xbc23e906	-0.010004288
235	0xbc1a8b80	-0.009432673
236	0x3c054676	0.008134475
237	0xbc5e3a7e	-0.01356375
238	0xbccce681	-0.025012257
239	0xbc3f6151	-0.011680917
240	0xbb08a6a9	-0.002085129
241	0xbc5ae43d	-0.01336008
242	0x3aae6d9d	0.0013307814
243	0x3c423fbd	0.011856017
244	0xbc6136f0	-0.013746008
245	0xbb2ad9e5	-0.0026069817
246	0xb9fe6c81	-0.00048527497
247	0xbd203401	-0.039112095
248	0xbc2a2954	-0.01038583
249	0x3c64a537	0.013955406
250	0xbb6bb134	-0.0035963776
251	0x3afbc994	0.0019209855
252	0x3bfa5c21	0.007640377
253	0xbb647913	-0.0034862205
254	0x3bee673d	0.0072754906
255	0xbc7721f0	-0.015083775

action_net.bias f4 [4]
0	0x39fd043f	0.00048259084
1	0x39ed1f3e	0.0004522744
2	0xbc592467	-0.013253308
3	0x3e1ba6e4	0.15200382
