Godot_Reinforcement_Learning-main/Examples/Shooter_AI/finale_model_last.onnx (onnx, 29141 bytes, 6 tensors)

mlp_extractor.policy_net.0.weight f4 [64, 37]
00000000: 6afb 47bd 6919 b8bd a449 f03d 604e cdbd
00000010: 7d05 19bd 57d4 11be fdf4 5ebe 5c03 7b3d
00000020: ad9f bf3e c9fa 313e cf8a ddbd b8b6 98be
00000030: d66f 2dbe 836f d0be e311 96be 3923 313d
00000040: 38a5 953d 1baa 09be 5199 763e f550 9bba
00000050: 5c72 5b3d 0ab9 13be a2c6 2a3c 3087 d8be
00000060: 000a cfbd e505 9c3d fc5a 18be 98ee 26be
00000070: 1256 3abe 8799 4c3e 630a adbd 7eb9 ce3d
00000080: 7238 aebe e18f 6f3d 0553 83bb 2c2b db3d
00000090: 7432 28be 5fa2 3d3d 5d62 e6bc 10a8 543d
000000a0: d1ff 49bc aad7 4b3e 2ecb b73d a7da 693c
000000b0: 32c5 2bbd 33f5 8dbd 12e1 e8be bf46 86bd
000000c0: 3e62 d23c 1f57 80be a820 d4be fa5c a3bc
000000d0: b7f9 1c3e 2c5d 723e e1e4 f23d 4f18 98be
000000e0: a143 073e bea5 3bbd b8c9 8c3e 9f0b 1bbe
000000f0: 7725 24be c0f2 f23d 8724 15be ae6a 8ebd
00000100: f305 353d 212e 4bbe 7c1b 0b3e 720e 24be
00000110: a924 b5bd 894a 2ebe 1774 1a3c 1429 2d3e
00000120: 1851 4bbd d9fe 0d3e 31c9 3c3c e495 de3c
00000130: 3c6a f8bd 548c c2bd 0436 603d 7264 13be
00000140: df53 e83d d973 cfbd a186 983e c682 3e3d
00000150: c76f 5bbe 5805 5fbd b3d4 0a3e aeb4 edbd
00000160: e2f4 9a3e d610 b93e e5ba 4bbe 3f5a 053f
00000170: 3aa1 7cbe 6188 8b3d c1d1 4cbe ca52 54be
00000180: 5d9e ef3c 0893 fbbc bd07 253d 0610 893d
00000190: 8132 dd3d f1bb 9b3d 1b47 98be fbff 86bc
000001a0: cf23 793e d453 903c f29f 6fbe c771 f43d
000001b0: 9e39 663d 3869 aabd edb1 b2bc 43e9 843e
000001c0: 3528 19be 4d22 aebd 0310 4d3e f57f 093e
000001d0: 34f7 84be 1c27 fdbd 1670 f6bd 8a44 c93c
000001e0: aac9 0fbe 90db cf3d 3ee1 5bbd bfc7 ae3d
000001f0: 7846 0f3d e9f8 2dbd 4bb9 1f3e e985 9c3d
00000200: 57ee 1abd 9894 fcbd c9c0 e93d 3c33 fdbd
00000210: a160 e4bc 089f 3ebe b9f6 4abe 15e5 8e3e
00000220: 3859 f0bd 6965 243e f4ed 9fbd fd1e dabd
00000230: d023 46be 6e5e 403e d546 833e 035a c73e
00000240: dd22 1ebd d6fb d0bd 3f5f 0a3e bc39 e1be
00000250: fcf5 cc3d f94f ca3e e597 e1be d76a e43e
00000260: c3fb f73d 52c6 8c3b c1b5 903d 4527 133e
00000270: 47e8 81be adf3 eebd 4853 03be 888a 8abd
00000280: a4ce b03d 0912 db3d 27a6 8e3d 2ec4 ab3d
00000290: dc77 39be cfe6 08bd 5955 3b3d c4c3 78bd
000002a0: d4b7 343e 3fd6 c4bd dedc 8cbd b7ea 92be
000002b0: 5c9c 793d 1fd6 a1bd 5c1b e9bd 5901 eabd
000002c0: 44a4 83be dfb0 a9be 8d65 413e 14ae 41be
000002d0: 8425 c4bd 77f3 fa3d 8e8a 7bbe 3159 00be
000002e0: d4aa 583d 5a0b 60be 3d4d 21be de0a 67be
000002f0: 5393 ba3c 8b95 37bd a7cb 273d 0a20 15be
00000300: ec73 80be b6d2 db3d c2d8 073e 7c90 2ebe
00000310: 9e2f 50be 6fef 5f3d 18b7 c33d 939e bc3d
00000320: 21e0 84b9 b77d 983d 3de6 a33d ed86 053e
00000330: ef6e f1be f8bb 8ebe c117 08be 2578 88bd
00000340: cea7 99bc 8a8e 253e 0af5 733d 4d88 483d
00000350: a6d7 5abc 46a7 b93d 6a55 eabd 3d13 99be
00000360: 5dee efbd 8aec 993e 7a4b fe3d 9de8 8c3e
00000370: 6a11 6c3e 6875 db3d a25d 56be 2577 6a3e
00000380: 5fd8 b3bd 1847 5ebe e0b7 9fbd cbd9 1c3e
00000390: c9eb fdbd 0abe 3b3e 21ed 8bbe e4e1 273e
000003a0: e078 a2be 0b6a 51bd 3104 1abe 671d 5e3d
000003b0: de04 aebd d5aa 0a3d 181d 893e f710 9a3e
000003c0: 0605 7e3e b444 b13d d198 fdbc fdd8 093e
000003d0: 4ee8 bcbe a80c 49be d19b 5d3e d6b7 70bd
000003e0: cdc5 b7be af5a 2f3e 0542 333e f95b 41be
000003f0: ed79 abbd 7985 993e dadd 4dbd adf4 1e3e
-0.04882375 -0.089892216 0.11732796 -0.100247145 -0.03735875 -0.14241157 -0.21773143 0.0612825
0.3742651 0.17380823 -0.10817491 -0.29826903 -0.16937193 -0.40710077 -0.2931052 0.04324648
0.073069036 -0.13443796 0.24081923 -0.0011849689 0.05357586 -0.14426056 0.010423334 -0.4229064
-0.10109329 0.07618312 -0.14878458 -0.16301954 -0.18196896 0.19980441 -0.08449247 0.100939736
-0.3402744 0.058486823 -0.0040076994 0.10701594 -0.16425496 0.046297427 -0.028123075 0.05191809
-0.012329058 0.19906488 0.089743 0.014273322 -0.041936107 -0.06931534 -0.45484215 -0.065564625
0.025681611 -0.25066468 -0.41431165 -0.019941796 0.15329634 0.23668355 0.118600614 -0.29706046
0.13209392 -0.04581236 0.2749765 -0.15141152 -0.16029917 0.11862707 -0.14564715 -0.06953941
0.044195127 -0.19841816 0.13584703 -0.16021135 -0.08844883 -0.1702062 0.009427092 0.16910201
-0.049637884 0.13866748 0.011522577 0.027171083 -0.121296376 -0.09499422 0.054739013 -0.14393786
0.11344122 -0.10129518 0.29790214 0.046511434 -0.21429358 -0.054448456 0.13557701 -0.116067275
0.30264956 0.36145657 -0.19895513 0.5209083 -0.24670878 0.068131216 -0.2000189 -0.20734707
0.029250318 -0.030709758 0.040290583 0.06692509 0.108006485 0.07604206 -0.2974175 -0.016479483
0.24330066 0.017618097 -0.23400858 0.11935764 0.05620729 -0.0832085 -0.021813357 0.25959215
-0.14956744 -0.08502636 0.20025639 0.13427718 -0.2596985 -0.12360975 -0.120330974 0.024568815
-0.14041772 0.101493 -0.053681605 0.08534192 0.034979314 -0.042473707 0.15598027 0.07642729
-0.037824955 -0.123330295 0.11413724 -0.12363288 -0.027878108 -0.18615353 -0.1982068 0.2790915
-0.11735767 0.1605431 -0.07809058 -0.10650442 -0.19349599 0.18786022 0.25639978 0.3893586
-0.038607467 -0.10204284 0.13512896 -0.4398936 0.10007855 0.3951414 -0.440612 0.44612762
0.121085666 0.0042961026 0.07065917 0.14370449 -0.25372526 -0.11667571 -0.12824738 -0.06764704
0.086331636 0.10696799 0.06965285 0.08387028 -0.18112129 -0.03342324 0.04573569 -0.06073357
0.1764825 -0.09611177 -0.068780646 -0.28694698 0.06094013 -0.079021685 -0.113821715 -0.11426038
-0.25711262 -0.33142754 0.18886395 -0.18914062 -0.09577468 0.122534685 -0.24564573 -0.12534024
0.05289729 -0.2187933 -0.1575212 -0.22562739 0.022775328 -0.04482035 0.040965702 -0.14563003
-0.2508844 0.10733549 0.1326628 -0.17047304 -0.20330665 0.0546717 0.09556407 0.09209933
-0.0002534399 0.07445853 0.08002899 0.13039751 -0.47154948 -0.27877784 -0.13290311 -0.06663541
-0.018756773 0.16167656 0.05955986 0.04895811 -0.013357079 0.09065108 -0.11442073 -0.2989749
-0.11715386 0.30063277 0.1241674 0.2752122 0.23053518 0.10715753 -0.20934156 0.22897013
-0.08781504 -0.21706808 -0.07798743 0.15317456 -0.12398488 0.18334213 -0.27329352 0.16394764
-0.31732845 -0.05112652 -0.15040661 0.05422726 -0.08497022 0.033854324 0.2678001 0.30091068
0.24806604 0.08655682 -0.030956658 0.1346168 -0.36895984 -0.19633734 0.2164147 -0.05876907
-0.35893098 0.17124437 0.17505653 -0.18882741 -0.08372865 0.29984644 -0.050260402 0.15523024

mlp_extractor.policy_net.0.bias f4 [64]
00000000: 8d5e 5c3a e4e3 06b9 25de 5db9 87a4 7b39
00000010: 4af4 47b8 20a1 e0b5 789e 03ba cd6e f7b8
00000020: 4126 293b 2f5d b5b9 6d43 6939 39af 95b9
00000030: 3c8c 823a 6e68 8b39 6a1d e6b9 461e d8b8
00000040: f101 c1b8 0fc6 cbba b102 04b8 85c4 76ba
00000050: c075 9bba 4efb 01b9 649f 9f39 e9c1 65ba
00000060: f386 a7b9 9dfb 5638 0370 c3ba aa3c 15b9
00000070: 042b 08b9 8f38 49ba 2415 a13a 4ad5 bab8
00000080: 6491 81ba c781 e4b9 da0d f2b8 a036 5db9
00000090: 73e2 18ba 2e6f 9939 a6be 0a3a 8f26 3139
000000a0: 6b0b 1dba 75b7 92ba 4f9c b539 5e4a 5339
000000b0: 3aa5 a137 fd9e 183a 6bec bbb9 059d eeb9
000000c0: 3b1e 4bba 5715 d8b7 f899 36b8 95b5 c938
000000d0: a518 ca3a b944 29ba c970 07ba 5bd7 8239
000000e0: dbf7 5f38 a95a feb8 048e 9cb9 bd96 f7b9
000000f0: ff40 4fba df6a 3e3a 10c3 8c38 a057 4aba
0.0008406423 -0.00012864132 -0.00021158958 0.00023998517 -4.767281e-05 -1.6736194e-06 -0.0005020867 -0.00011798516
0.0025810155 -0.00034592437 0.0002224573 -0.00028550046 0.0009960006 0.00026589952 -0.00043890934 -0.000103053215
-9.203319e-05 -0.0015546697 -3.147376e-05 -0.0009413439 -0.0011860654 -0.00012396017 0.00030445599 -0.00087645516
-0.00031953267 5.125591e-05 -0.0014910701 -0.00014232346 -0.00012985995 -0.00076759694 0.0012289626 -8.908899e-05
-0.0009885249 -0.0004358424 -0.00011542039 -0.00021096552 -0.00058320834 0.0002926527 0.0005292691 0.000168944
-0.0005990776 -0.001119359 0.0003463947 0.00020150232 1.9269635e-05 0.0005822031 -0.00035843565 -0.00045511886
-0.000774834 -2.5759144e-05 -4.3535576e-05 9.618249e-05 0.0015418722 -0.0006457079 -0.00051666476 0.00024955985
5.3398177e-05 -0.000121285506 -0.0002986045 -0.0004722382 -0.00079061085 0.000726385 6.7120534e-05 -0.00077187456

mlp_extractor.policy_net.2.weight f4 [64, 64]
00000000: 0a90 edbd 2a5d 41be b425 1b3e 747b 46bd
00000010: 83b6 f0bd 2913 0abe 2137 083e ce10 6fbd
00000020: dac3 e7be 5a88 0dbd 7380 2fbe 1ae3 f7bd
00000030: 3ac7 ba3d 5ea0 093e c26f c4bd f50e b13e
00000040: 3883 45be 6f48 d93d 04ab 093e 0d93 85be
00000050: 2d60 853e e9a2 d33b a85a c53e b280 c93d
00000060: 9920 1e3d 9cf3 e23d 0f3f 833d 1186 29be
00000070: bf6b 24be 28ad 26be 0a17 95be 6372 65bd
00000080: f135 b53d c051 963e a029 983e e553 bcbd
00000090: 3ee0 42be 6e22 03be 21bf 263e c493 9d3e
000000a0: e2c0 e0bc 2c45 adbc 59da 00bd 5fdc 88be
000000b0: a508 d03d c34a 743e 43e5 9d3e e2f8 18be
000000c0: 437f 17bd 540b f4bc 8a1e 5ebe b737 823b
000000d0: 6bf5 5bbe 4bda 55be d392 6dbd 05a3 b73d
000000e0: 6077 79bd bb5f e5bd 14bf 36be 6cb7 eabd
000000f0: b311 4cbc 9360 863e a3c4 d53d 4863 0d3e
00000100: 23e1 993d f428 b2bd ad2b 823e f365 78bd
00000110: a920 27be 3296 743d ecc5 7bbe a198 99be
00000120: 1681 d0bd d305 44be 97b5 60bd 02eb 6ebc
00000130: c47e 8b3e 0d8a 923e c69e 483e 9922 bb3a
00000140: b56c 703e 28b3 9f3c a5fe 94be ea17 a13e
00000150: 4141 8abe ce7d 033e e729 dabe cbfc 9bbd
00000160: 4683 003d 9f14 f7bc 78dd 023e 07ac 2dbe
00000170: 904c 28be 2033 f7bd 3a7c c4be 52a2 64be
00000180: e5e0 263e e154 95be 0b75 16be 5592 1fbe
00000190: 6b54 8dbe 2999 52bb ccbd ba3d b3fa 4e3e
000001a0: e59a dfbd 3074 c43d 2cf7 59be 6b73 87bd
000001b0: e2e0 c9bd a64e 5a3e d033 2fbe 2773 7cbe
000001c0: f38e 58bd 8b8a 01be b6d4 413e 050e 53bc
000001d0: 8f51 743d 9507 cbbd 59ec 02be f1ff 683d
000001e0: 15ac bcbd 6d59 54be cc2d 1dbd 00c8 24bd
000001f0: 39dd 21bd aeda 1fbd 49dc 29be 9f37 16be
00000200: 7517 9c3d ec94 303d 831a 4fbe cb5b cbbd
00000210: dea6 eebe 8b58 803d 45df 853e 9256 76be
00000220: a831 40be 385f b8be b01f a43e bf9f 23be
00000230: 8c5d cc3d 5ff9 c0bd 9869 063d ec60 853e
00000240: 4eed 35be bedd 1bbd 766b aa3d a303 83be
00000250: a8a0 0bbe fae2 afbc 920d 57bd 4429 bb3d
00000260: fa56 aabd 072a 54be 001c cdbc 29fe 293e
00000270: d5eb e63d ae45 cbbb 6906 363e a121 c83d
00000280: 89c9 1a3d 6181 6fbd 6d30 a7bd 10be 053d
00000290: eb6d 75bc 52ea 7e3d 0b67 e13d 653d 98bd
000002a0: ea17 283c 3835 2abe a75a 913e 688f 41be
000002b0: 77a6 cb3d 97e7 f73d 0603 e5bd fb8b 563d
000002c0: 7a94 6a3b 5a65 adbd a646 213f 711d 213e
000002d0: bbfe 2a3e ddc8 413d d8bd 01be 9b7e 803e
000002e0: 732b 84be 0352 153e e137 d9bd 48b1 443e
000002f0: 4b19 61bc ed78 f33c dcf2 5c3e 02b2 c6bd
00000300: 0e4d c8be 3877 1e3e fca2 cf3e bc34 87be
00000310: 8551 9d3e 78a1 2a3e a3dd b83d c47c c43c
00000320: 4d36 9f3d 63b5 103e 9279 77bd ec7e ddbd
00000330: bf00 41bc 8ed6 7bbe 1ddf 7e3d d0b8 cdbb
00000340: d396 e9bd b879 ef3d f72f cc3e 7fc1 88be
00000350: 2155 033d ae78 3c3d 83a3 c7be d282 d2bd
00000360: 563c 283e 9b28 083e 8c24 efbc 4e84 713e
00000370: 763f 8a3d 0fec b9bd 60f8 0a3e 2315 673e
00000380: f2e2 c53e 4fe6 303e 2765 80bd d562 01bc
00000390: 450d c13b 2be9 8abe 08e3 ecbd cacd 3f3e
000003a0: 8d62 b5bd 5f84 803d 37a2 88be a96a df3d
000003b0: e67d 06be 90cf 153c 16d8 d23c eb5a 76be
000003c0: ea36 6c3d 9ef3 4abe 275d d73d 2773 d03d
000003d0: ae2c fd3d d7dc 323e bd54 af3d 8f93 f63d
000003e0: 7814 4fbe 6698 7abd 6889 3dbe f86d 393e
000003f0: a8f7 853d f04d b33c 33b1 dcbd f17c b2bd
-0.11599739 -0.18883196 0.15151101 -0.048457578 -0.11753561 -0.13483872 0.1330228 -0.058365636
-0.4526661 -0.034553863 -0.17138843 -0.12103863 0.09120031 0.13440081 -0.095916286 0.34581724
-0.19288337 0.10609519 0.13444144 -0.26088753 0.2604994 0.0064586294 0.38545728 0.09839
0.038605306 0.11081621 0.06408512 -0.16555049 -0.16056727 -0.16276991 -0.2911914 -0.05601729
0.08848179 0.29359245 0.29719257 -0.09195689 -0.19030854 -0.12806103 0.16283847 0.307768
-0.027435724 -0.021151148 -0.031458233 -0.2673063 0.10157899 0.23856644 0.30838975 -0.14938691
-0.0369866 -0.029790558 -0.21691337 0.003973927 -0.21480338 -0.20884053 -0.05800135 0.089666404
-0.06090486 -0.111999 -0.17846328 -0.11460766 -0.012455392 0.26245555 0.10437896 0.13807404
0.075136445 -0.086992174 0.25423947 -0.0606441 -0.16321053 0.05971355 -0.2458722 -0.2999926
-0.10180871 -0.19142847 -0.054860678 -0.014582397 0.27245152 0.2862095 0.19591817 0.0014277279
0.23478968 0.019494608 -0.29100528 0.31463557 -0.2700291 0.1284096 -0.42610094 -0.07616576
0.031375192 -0.0301612 0.12779796 -0.16960154 -0.16435456 -0.12070298 -0.38376027 -0.22327545
0.16296728 -0.2916632 -0.14693086 -0.15583165 -0.27603468 -0.0032134748 0.09118232 0.20212822
-0.10918216 0.095924735 -0.21285695 -0.06613811 -0.09857346 0.21319064 -0.17109609 -0.24653302
-0.052870702 -0.12650506 0.18928799 -0.0128817605 0.059648093 -0.099135555 -0.12785472 0.05688471
-0.092125095 -0.20737238 -0.038373753 -0.040229797 -0.039517615 -0.03902691 -0.16587938 -0.14669655
0.076216616 0.043110773 -0.20224957 -0.099296175 -0.46611685 0.06266888 0.26146904 -0.24056461
-0.18768942 -0.36010146 0.32055426 -0.15978907 0.0997878 -0.09422564 0.032815546 0.26050508
-0.17766306 -0.038053267 0.08321278 -0.25588712 -0.13635504 -0.021470536 -0.052503176 0.0913873
-0.08317371 -0.20719157 -0.025037766 0.1660086 0.1127545 -0.006203375 0.17775883 0.09772039
0.037789855 -0.058472995 -0.08163533 0.03265196 -0.01497982 0.062235184 0.11005982 -0.07433585
0.010259608 -0.16621864 0.28389475 -0.18902361 0.0994386 0.12104719 -0.11182217 0.05237959
0.0035794065 -0.08466597 0.62998426 0.15733887 0.16698734 0.0473107 -0.12670076 0.25096592
-0.258144 0.14582066 -0.10606361 0.19208252 -0.0137389405 0.029720748 0.21577018 -0.09701921
-0.39121288 0.15475166 0.40554035 -0.2640742 0.30726257 0.16663158 0.09026649 0.023985274
0.07774029 0.14131694 -0.060418673 -0.10815224 -0.011779963 -0.24593565 0.062224496 -0.006278135
-0.114057206 0.11693138 0.39880344 -0.26710126 0.032063607 0.046013527 -0.38991937 -0.10278858
0.16429266 0.1329674 -0.029192232 0.23585626 0.067503855 -0.09078228 0.1357131 0.22566657
0.38649708 0.17275356 -0.06269293 -0.007897099 0.0058914744 -0.27131018 -0.1156674 0.18730846
-0.08856688 0.06275248 -0.2668626 0.10909016 -0.13133964 0.009143725 0.025737803 -0.2405812
0.057669558 -0.19819495 0.10515814 0.101782136 0.123620376 0.17467056 0.085610844 0.12039863
-0.20222652 -0.061180495 -0.18509448 0.18108356 0.06541377 0.02188775 -0.107759856 -0.08715237

mlp_extractor.policy_net.2.bias f4 [64]
00000000: 75f2 27bd ce02 a23b f183 3f3c 1690 28bd
00000010: 57f2 18bd 079e 1eba 2d59 e63b 8c33 373c
00000020: a940 513c 7d72 3abd 6845 663c 3296 583c
00000030: a1c1 81bc 92d2 ac3c 84a1 473d 687f a73b
00000040: 9277 d5bb e2c8 583c ba6e 0b3d 88ab c4bc
00000050: cde6 ddbc e834 45bc c04f 05bd 55b9 243a
00000060: ab18 cabc afed f7bc 3945 313a 0311 2e3d
00000070: 1fb1 33bb bf72 ddbc 6a46 aabc f1a2 343c
00000080: 59fa 023c 6331 963c 9794 a3bc 00e2 0c3d
00000090: 8519 b0bc b3e2 9d3c 7f60 003d b997 8c3c
000000a0: 95a1 51bd 5a76 4abc 8cfa c63c b87c b93c
000000b0: 08a0 2e3c 805a b9bc cbb8 9dbc 416c 72bb
000000c0: 863a 25bd cd34 e23b e3e6 673d 3dcd 98bc
000000d0: 163a 5ebc d048 7dbc b370 753b 429c 1b3c
000000e0: 735b d83b b01e 263b cdb1 1abd d057 993c
000000f0: d9d3 6d3c dca0 81bc f26a 4cbb f10f 923d
-0.04100271 0.004944182 0.011689172 -0.041153036 -0.03734049 -0.00060507696 0.0070296736 0.011181723
0.012771764 -0.04551934 0.014054634 0.013219403 -0.0158394 0.021096501 0.048738018 0.0051116236
-0.006514498 0.013231488 0.034041144 -0.024007574 -0.027087593 -0.01203654 -0.03254676 0.000628372
-0.024669966 -0.030264704 0.0006762329 0.042496692 -0.0027418805 -0.027032254 -0.02078553 0.011025176
0.007994258 0.018334096 -0.019968314 0.034395218 -0.021496544 0.019273138 0.031342026 0.01716219
-0.051179487 -0.012357319 0.024289392 0.022642478 0.010658272 -0.022626162 -0.019253155 -0.0036990794
-0.040339015 0.006903267 0.056616675 -0.018652553 -0.013563653 -0.015459254 0.0037451207 0.009497704
0.0066026985 0.002534788 -0.03776722 0.01871863 0.01451584 -0.015823774 -0.0031191674 0.07131947

action_net.weight f4 [4, 64]
00000000: 42ad 523d 5f1c ea3c 2f48 b43b 9bc0 d7bb
00000010: 8b3a 3d3d dbbb 1fbd 5f89 29bd f961 5fbd
00000020: a178 2e3d 9d3f 6d3c 995e 0d3d a6f5 9cbc
00000030: ab3d 04bd 20ba 84bc 2cc9 323d a960 65bd
00000040: 6dbc 93bc 5242 debc a563 71bc eefd c93b
00000050: e5f6 863c cede 3cbc 5e24 be3c e344 d03c
00000060: 7d97 033d 32cf 2c3d a284 7c3c 8820 1bbc
00000070: 62ab 00bc 0a27 9fbd 5e5e 2d3d ffc0 2e3d
00000080: 9fbe 8f3c f1a0 c4bb 3d59 093c c587 5f3c
00000090: 220e 44bd 0872 7f3c 8bef 9fbc 2e2d 37bd
000000a0: e314 d33c e434 7b3c e7aa c0bc 94cb f4bb
000000b0: 0624 ed3c d67e a83c b649 0c3d 8b93 8cbc
000000c0: fc74 15bd 0ec4 293c b8ef 313d 1dad 153d
000000d0: 27a4 323d 1727 643d d0a4 0abd dadf a3bc
000000e0: b4a3 13bd e41c 12bb 361b 443c 43a8 4fbc
000000f0: 6edc 68bc bba3 123c 03ae 8cbc 65cf 993d
00000100: 7c2a dbbc 8c75 a73c 5dc9 9abc f8e2 9e3a
00000110: d2c5 f7bc 4683 833c 4dc6 5b3d 8cb9 0a3d
00000120: 47bb b4bc 53ad b0bd 50dc edbc 0d13 553d
00000130: 3850 cebc b304 533d 708f 20bc d43d 543c
00000140: 1120 d1bc af1a c23c 6061 533d 192f 18bd
00000150: 46e6 41bd ae02 0fbd 5351 7fbd 0ba8 ccbc
00000160: 35ec 30bd dd51 8bbc 7c37 3e3c 9fd9 af3d
00000170: 92e1 61bc fdeb 243e 948a 92bd 6547 e4ba
00000180: 27f0 9cbc 7012 493d 045d 28bd 0da9 a6bd
00000190: 0d66 573c 06a0 81bc 2b73 803d 904e 3e3d
000001a0: 38f0 2bbd 3d08 1bbd dfe0 223d 69de 4f3d
000001b0: 7e32 223d f6de 1cbd a4f7 c6bc f7be 61bc
000001c0: 8e62 4abc 01c2 043a 089a bf3c fec8 41bd
000001d0: 38ad f7bc 0a2f cebc 6a3d cb3c d52a c23c
000001e0: 52a8 0ebc 8cb1 37bd 7789 10bd a7c1 a3bc
000001f0: 5e82 843d 744a 6bbd 99db 653d 8fc1 953d
00000200: 940e e33c 6497 56bd 9d02 d5bc c8ae 71bc
00000210: 745d 293c b6d8 2cbc c414 6d3d 48eb c9bb
00000220: e100 8b3d 789e 9c3b 722c 20bc 874b 3dbb
00000230: 3703 60bd 7f05 61bc 5456 db3d be0d 8fbc
00000240: 915c 67bd 9af3 27bc 98e0 bb3a bd1c a83a
00000250: 1d4f a2bb 23ae b3bc 4dfd b83c d6d4 663d
00000260: c3c0 783d 7f82 ba3c 9b41 ea3c ea8f 903c
00000270: 3ed7 9abc e9ca b73b f367 c9bc 24dd 3f3d
00000280: a0d6 d8bb d5fb 363c 9da3 aa3c 06d7 d83b
00000290: c302 1b3d 340d ab3c 1c1d d1bc a88b 35bc
000002a0: 2147 90bb bb71 533d 8e1c b4bc e648 13bd
000002b0: 49cb a8bd 2043 8c3c 4a07 e4bc 2201 26bd
000002c0: 09cb a3bc 77d1 6e3c e6a6 9cbc 7815 003d
000002d0: f218 1f3d a25d 913a 85fc 1ebb 7c57 94bc
000002e0: afa3 313d a720 16bd 914f debc 2688 22bd
000002f0: c268 00bd 7d4c 613c 1526 973c 4492 2e3d
00000300: 57ce 96bd 43be 45bc 1d3c f73c 4b2d 12bd
00000310: 626c 98bd a8fe 873b 901e abbc 8679 8e3c
00000320: 8662 393c 0a1b c9bc ea8b 283d fec5 d5b9
00000330: 46fa 183c 21e2 293d 0f3f 843d bcf3 153b
00000340: fc6f 723c 74a7 8f3c 6b6d e73c 226b 4ebd
00000350: ba34 32bd 33df 00bc 11ca 13bd e1e4 adbb
00000360: b91e 2bbd aec4 9dbd 1700 263c fb30 1f3d
00000370: 9458 acbb 18c9 8fbd 59b6 03bd 9792 133b
00000380: d56c b73c edd9 413d ac2c 8ebc 5702 4c3d
00000390: 5c69 0bbc 1137 f43c bc5d 183d 01e7 dd3c
000003a0: cb39 8cbd fd0e a8bb b9c6 e43c bdb3 253d
000003b0: 8c3a 3b39 321d 0cbd ebee 2fbd 4a32 713c
000003c0: 98e6 08bd ef4a c93c 8268 603d 9a67 c4bc
000003d0: 28f2 43bd 09f9 36bd e338 2e3b 7e6c 543d
000003e0: c3f2 113d 3f3f eb3b a46c 5dbd 970d 023d
000003f0: 35c1 90bb 1ce5 51bc ad31 5fbb 9840 d43c
0.051434763 0.028577982 0.005501769 -0.0065842397 0.04619841 -0.038997512 -0.041390773 -0.054536793
0.04259551 0.014480499 0.034514043 -0.019160103 -0.032285374 -0.016202033 0.043648884 -0.056000385
-0.018034184 -0.027131233 -0.01473323 0.006164304 0.01647515 -0.01152773 0.0232107 0.025423473
0.032126892 0.042189784 0.0154124815 -0.009468205 -0.007853361 -0.07771118 0.042326324 0.042664524
0.01754695 -0.006000631 0.0083830925 0.01364321 -0.04786504 0.015591152 -0.019523403 -0.04472082
0.025766796 0.015332434 -0.023518993 -0.0074705575 0.028947841 0.020568293 0.034249984 -0.017160198
-0.036488518 0.0103616845 0.043441504 0.036542047 0.04361358 0.05570134 -0.033848584 -0.020004202
-0.03604479 -0.0022295052 0.011969378 -0.012674394 -0.014212711 0.008950169 -0.017172819 0.075102605
-0.026753657 0.020441793 -0.018894846 0.0012122085 -0.030245695 0.016053807 0.05365591 0.033868358
-0.022061957 -0.08626809 -0.029035717 0.05202012 -0.025184736 0.051518153 -0.009799823 0.012954194
-0.025527986 0.023694364 0.051606536 -0.03715429 -0.047338746 -0.034914665 -0.062333416 -0.024982473
-0.043194015 -0.017006809 0.011609908 0.0858643 -0.01378669 0.16105647 -0.07155338 -0.0017416297
-0.019157482 0.04908985 -0.04110433 -0.08137713 0.013146889 -0.015823375 0.062719665 0.04646164
-0.041977137 -0.037849654 0.039765235 0.050749216 0.039598934 -0.03829857 -0.024288006 -0.01377844
-0.012352599 0.0005064309 0.023388878 -0.04731082 -0.030233964 -0.025168914 0.024809558 0.023702065
-0.008707123 -0.044847056 -0.035287347 -0.019989802 0.06470178 -0.05744405 0.056117628 0.07312309
0.027716912 -0.05239047 -0.026002223 -0.014751144 0.010337222 -0.010549715 0.05788113 -0.006162081
0.06787277 0.004779633 -0.009776222 -0.002888413 -0.054690566 -0.0137342205 0.10709825 -0.017462607
-0.056484763 -0.01025095 0.0014333902 0.0012825947 -0.0049532787 -0.02193362 0.02258172 0.05635532
0.060730707 0.022767304 0.028595736 0.017646749 -0.018901464 0.0056089056 -0.0245857 0.046841756
-0.006617382 0.01116844 0.02082997 0.0066174297 0.03784443 0.02088032 -0.025526576 -0.01108066
-0.0044030105 0.051622134 -0.021986272 -0.035958193 -0.082418986 0.017121851 -0.027835507 -0.040528424
-0.019994276 0.0145763075 -0.019122552 0.031270474 0.03884215 0.0011090527 -0.00242594 -0.018108122
0.04336899 -0.036652233 -0.02713755 -0.039680623 -0.031349905 0.013751146 0.018450776 0.04261996
-0.07363575 -0.012069288 0.030180031 -0.035687726 -0.074425474 0.0041502304 -0.020888597 0.017391931
0.011314994 -0.024549026 0.041149057 -0.00040774042 0.009337014 0.04147542 0.0645734 0.0022880873
0.014797207 0.017535903 0.028250417 -0.05039514 -0.043507315 -0.007865715 -0.036081377 -0.0053068255
-0.041777346 -0.07703529 0.010131857 0.03886507 -0.005259583 -0.070207775 -0.032156322 0.0022517794
0.022390762 0.04732697 -0.017355286 0.04980692 -0.008509006 0.029811414 0.037198767 0.02708769
-0.06846961 -0.00512874 0.02792679 0.040454615 0.0001785552 -0.03420753 -0.04295246 0.0147214625
-0.033423036 0.024571864 0.054787166 -0.023975182 -0.04783836 -0.044671092 0.00265842 0.05186128
0.035631906 0.0071791704 -0.054058686 0.03175124 -0.0044175633 -0.012810972 -0.0034056709 0.025909707

action_net.bias f4 [4]
00000000: 702d 203e c9a9 c83d 9d25 173d d8e1 aa3e
0.15642333 0.09798009 0.036901105 0.3337543
