Godot_Reinforcement_Learning-main/Examples/Shooter_AI/new_model.onnx (onnx, 36815 bytes, 6 tensors)

mlp_extractor.policy_net.0.weight f4 [64, 69]
00000000: d55e 15be 6e0d c6be 356a 2abd 0292 4139
00000010: e508 d5bd 3204 443e 5efe 463e e65d e6be
00000020: ef8f 763d 4082 ca3d 098b ccbc a765 273e
00000030: 9408 41be 9adc 873c 0c9b b03d d3c8 823e
00000040: 8cfd 98be 62fd cebd 25dd 0bbe 01d6 cebd
00000050: 850d 16be 66d0 44be c628 84be f37e 9f3d
00000060: 134d 29be fc45 4d3e 8b9a 19be 580d da3c
00000070: 00cc 1f3e ded8 b8bd 5cb7 163e de49 7c3c
00000080: 0786 253e 8bc3 f43d e56a 763e 9b59 70bd
00000090: d882 2dbc e731 703d a04b 8dbe 11ec e23e
000000a0: 196e 44be 4783 a33c 8819 56bd 51ea 7d3e
000000b0: 2c32 18be 0885 423e cedb eb3d 5f6d 683e
000000c0: fd05 b1bd ad91 2e3e 0514 d13c ff05 ad3d
000000d0: 7066 083e 4a15 5ebe 85ec 7a3e b77a 363e
000000e0: c370 b5bb 61fb aabd 53bb 683c 0c0f 013e
000000f0: 86b1 363e 2479 3abe 6296 043e a8d4 14be
00000100: 62a8 c53d 2290 b53d fbd5 8fbc ae6d f93c
00000110: 0041 513e a04c 993e 1d6b 6e3e f77f 223e
00000120: ea07 7e3c e22c 8d3e 1cf6 b83c 41da 74bd
00000130: 1053 05be 9ae0 a8bd c7b7 273c 167a 4e3e
00000140: 7e5d 543e 44cf ccbd 73c0 ebbc 5dbc 6abe
00000150: 1d8c 663e d98c 72be f7d5 9f3e de0f fb3d
00000160: 9100 1bbc 56fd b5bc 438e 653e 5216 9bbe
00000170: fdf7 f9bd aa04 b93d f66f 533e fd2b 8cbd
00000180: 51c8 37be d2f3 d3bd de8e fbbd 76c5 ba3c
00000190: 03bc b33e 1848 933d 9dbd 83be b7e6 82be
000001a0: e342 113e fb7c 993e 79cf 85bc 7b41 bcbd
000001b0: 420a a1bb 5b79 b53d e233 8cbd adcd a43d
000001c0: 9406 4bbe 58a4 9dbe cb3d debd dfd0 7f3e
000001d0: 0bbb 22be cfb7 ddbd c5bd bc3e a80e 1a3e
000001e0: f593 653e 077e cd3c a474 10be 8257 473e
000001f0: 87bd 93bd 4398 75bd 4459 083e 5e54 303d
00000200: 68af 77bd b789 a9bc 77a2 67bd 072c f7bd
00000210: 7e56 703e 8250 3abd 8882 8dbd 372f bcbd
00000220: 575a 493e 5ab1 33be 8701 0aba 02ee 0cbd
00000230: 5f78 93bd d4dd e1bd 9f5a 52bd 2c0c 3cbd
00000240: 5ecb a23d a9e1 ffbd fc0e 253c d17c 2a3e
00000250: 50d6 bf3e 99b2 8abd 40ec 433e 9ffb b93d
00000260: 3d6b e23c 6573 cebd 5024 793e 54a4 29be
00000270: adbf 973d 10e3 483e 0d2f e7bd 4e67 673e
00000280: 0a23 a3be 7e98 32be ff0f 57be ffa6 813e
00000290: ed3f ec3c bc20 663e b106 d13d e44a 113d
000002a0: e3d9 a9bd 62eb 243e 7b7f d4bd 6bec eebd
000002b0: 06fd e43c 6560 c93d e661 823d 27d6 5b3e
000002c0: 4f5f f73d 36f4 4b3e 8b3d 4fbd e844 3cbd
000002d0: c79c 64be 0fb0 abbe ed7a bf3e c255 9f3b
000002e0: f324 1c3e c41b 983e 274f c03c a5dc d23d
000002f0: 58a3 59be 1d72 46be fb03 7b3e 5d1a f73d
00000300: fe27 883d 2cdf 573d ef73 983d 7b24 42be
00000310: 80e6 d23d cd99 6fbe 05f5 f3bd faed 583e
00000320: 452d e7be ec02 b6bd a12e 38be cfce 3a3e
00000330: b00d 82bd 93c3 1b3c 5cfd ec3d a1c2 1cbe
00000340: 4517 0e3e 6b59 7c3d 19bb b8bd a847 31bd
00000350: 3d34 393d 6ff2 2cbe 0159 fc3d bf48 7bbe
00000360: 7a6f 14be 46d3 ab3d 65c5 c93c 74ea cfbd
00000370: 3a0b abbe 6210 883d 7394 593e 486a 63bb
00000380: 0c55 e539 5cfe d6bc 9997 c63e 2aa1 963e
00000390: 8274 fbbd ca54 0bbe fa11 2cbd 63cb 81bd
000003a0: 8f3d 4abe fc79 6dbd b621 9abe 7f01 48be
000003b0: 2196 11be ea33 d8bd 3031 613e 98ef 9bbd
000003c0: 992e c0bc a409 25be 8b47 1cbe 66ac 29bd
000003d0: f115 9ebd 70e9 5f3e bd8a 573e aa0f 37be
000003e0: ab9c 24bd a143 67bc 6b98 283d 1c3f 003d
000003f0: a408 743e 590b a93d be11 c3be 1c8a efbd
-0.14586957 -0.3868212 -0.041605193 0.00018460306 -0.10402087 0.19142225 0.19432971 -0.44993514
0.06019586 0.098881245 -0.02496864 0.16347371 -0.18850929 0.016584683 0.08623323 0.25543842
-0.2988094 -0.10106923 -0.13658579 -0.10099412 -0.14653595 -0.19220123 -0.25812358 0.077878855
-0.16533308 0.20046228 -0.1500036 0.02661769 0.15605164 -0.09025739 0.14718384 0.015398471
0.16164409 0.11951359 0.24064215 -0.058679204 -0.010590278 0.05864134 -0.2759676 0.4432073
-0.19182624 0.019960059 -0.052270442 0.24796416 -0.14862889 0.1899606 0.11516534 0.22697972
-0.0864372 0.17047758 0.025522241 0.08448409 0.13320327 -0.21687809 0.24504288 0.1782025
-0.005537124 -0.08348728 0.014204818 0.12603396 0.17841157 -0.18210274 0.12947991 -0.14534247
0.09651257 0.08865382 -0.017558089 0.030447807 0.20434952 0.29941273 0.23283048 0.15869127
0.015504817 0.27573305 0.022578292 -0.059778456 -0.13019967 -0.08245964 0.010236687 0.2016376
0.2073879 -0.1000047 -0.02877829 -0.22923417 0.22514386 -0.23686542 0.3121793 0.12258886
-0.009460584 -0.022215527 0.2241755 -0.30290467 -0.12205503 0.09034093 0.20648178 -0.068443276
-0.17947508 -0.103492394 -0.12283109 0.022799235 0.3510438 0.07191485 -0.257306 -0.25566646
0.14185672 0.29978165 -0.016334282 -0.09192177 -0.004914553 0.08861037 -0.06845833 0.08047042
-0.19826728 -0.30789447 -0.1085163 0.24982022 -0.15891664 -0.10826074 0.36863533 0.15044653
0.22419722 0.025084509 -0.14106995 0.19466975 -0.07213884 -0.05995966 0.13315302 0.04304921
-0.060470015 -0.02069555 -0.056551423 -0.120689444 0.23470494 -0.045486934 -0.069096625 -0.09188693
0.19663368 -0.17548123 -0.000526451 -0.03440667 -0.07200693 -0.110286385 -0.051355954 -0.045910046
0.079489455 -0.12494213 0.010074373 0.16649176 0.37468195 -0.06772346 0.19133091 0.09081196
0.027639026 -0.100806035 0.24330258 -0.16566592 0.07409606 0.19617867 -0.11288271 0.22598001
-0.3186267 -0.17440984 -0.21002196 0.2532272 0.028839076 0.22473425 0.102063544 0.035471812
-0.08293512 0.16105416 -0.103758775 -0.11666187 0.027952682 0.09832839 0.06366329 0.21468411
0.120787255 0.19917378 -0.0505958 -0.04596415 -0.22325431 -0.3353276 0.37398472 0.004862518
0.1524847 0.29708683 0.023475243 0.10295991 -0.21253717 -0.19379468 0.24513237 0.12065575
0.06648253 0.052703068 0.074439876 -0.18959229 0.10297871 -0.23398514 -0.11911968 0.21184531
-0.45151725 -0.08887276 -0.17986538 0.18242954 -0.06350267 0.009507078 0.11571762 -0.1530862
0.13876064 0.061608713 -0.09020061 -0.043281227 0.045215834 -0.16889356 0.12321664 -0.24539469
-0.1449565 0.083899066 0.024630258 -0.1015214 -0.33407003 0.0664375 0.21248035 -0.00347008
0.0004374165 -0.026244335 0.38787535 0.29419833 -0.122780815 -0.13606563 -0.04200933 -0.06337621
-0.19750045 -0.05797766 -0.30103844 -0.1953182 -0.14217426 -0.10556777 0.2199142 -0.07614058
-0.02345972 -0.16116959 -0.15261666 -0.041424178 -0.07719029 0.21866393 0.21049018 -0.17877069
-0.040188473 -0.014115245 0.041160982 0.031310186 0.23831421 0.082541175 -0.38099474 -0.11696264

mlp_extractor.policy_net.0.bias f4 [64]
00000000: b743 0439 646e 9139 b56b 8a3a 2021 47ba
00000010: 5897 2b3b c41d c23a 1386 273a 396e 19ba
00000020: 8a61 df39 5c8c d2ba 32e0 e4b8 12ba 18ba
00000030: df0b 4b3b b814 a23a 4a64 14ba 1926 fc3a
00000040: 0de8 9bbb 5d22 5d38 c712 17bb 1758 b438
00000050: 651d 233a 14fe e139 934f 113a 0ca7 013a
00000060: 9209 a638 ca10 0b3a 64b2 5dba fb7e 0d3b
00000070: 2b11 433a e883 99ba 97a9 d6b9 e847 43ba
00000080: 22e4 b4b9 e76f 943a 5987 a93a badf f637
00000090: 480a 003b 54c4 083a 17f0 283a 0cd1 b1b9
000000a0: 1b83 ec3a 9b66 41b8 8e5a 173a 7bf1 33ba
000000b0: 1787 9a3b 19f9 a13a 78df e239 3ff3 c43a
000000c0: 2585 29bb 5395 a439 835f 24bb 15ab 893a
000000d0: bfe6 22ba 0ecb 0039 a364 05ba 873b 193a
000000e0: 562e 48bb 2d02 d6b9 ac20 d03a a71e 4b3b
000000f0: e369 f3ba 32bd 743a d9d1 0438 a6a5 283a
0.00012613727 0.00027738803 0.0010560664 -0.00075961836 0.0026182737 0.0014809896 0.0006390523 -0.0005852911
0.00042606547 -0.0016063559 -0.00010913647 -0.00058260665 0.0030982418 0.0012365794 -0.0005660696 0.0019237428
-0.004757887 5.272251e-05 -0.0023051964 8.599477e-05 0.00062223367 0.00043104647 0.00055431685 0.00049458514
7.9172794e-05 0.0005304931 -0.0008457063 0.0021590579 0.0007441218 -0.0011712285 -0.00040943615 -0.00074493745
-0.00034502248 0.0011324853 0.0012934014 2.9429666e-05 0.0019537378 0.00052172435 0.00064444676 -0.00033915823
0.0018044444 -4.6110345e-05 0.00057736866 -0.00068642915 0.004715811 0.0012357562 0.00043272576 0.0015026106
-0.0025866714 0.00031391773 -0.0025081343 0.0010503257 -0.00062141934 0.00012282675 -0.00050885434 0.0005845357
-0.0030545196 -0.00040818882 0.0015878878 0.0030993612 -0.0018570985 0.00093360536 3.166669e-05 0.0006433375

mlp_extractor.policy_net.2.weight f4 [64, 64]
00000000: 6f8b 57be 6602 17be b817 6c3e 295c 22be
00000010: d62f 0b3e 50ed 18be 2911 64bd 5ccc 273e
00000020: dfb5 0fbd 6812 8abb bc1c 8b3d a23e 5dbe
00000030: c89d 5bbe 004a ffbc c4b8 42bd 0630 babe
00000040: 3f27 d43d 3627 82bd 2033 0fbe 3fe2 a4be
00000050: b098 d1bd c21b ff3e f58e 6dbe 47c3 b0bc
00000060: af2a 86be 53d9 ccbd fe2b 85be b147 a5bd
00000070: bb82 9e3e 4891 57bc 1a4a 90bc 5f49 893b
00000080: c8fa 8fbc d9c8 893d 6866 09be ce68 c33d
00000090: c190 d13d 1f13 8a3c 54be 9e3e e7f2 d3bd
000000a0: 230d cbbc 3608 53be d3f5 08bd 11c1 f9bd
000000b0: 4cc9 123d bc73 fdbd f5ec ca3e 907d e2be
000000c0: 4239 0f3e 9f52 a1bd da7a 00be d910 5d3e
000000d0: 3085 213e 569d 803c f63f bcbc 9b6e 443d
000000e0: 5b81 f0bc 0579 25be 6b3d ff3d 520a 6f3c
000000f0: 07cd 103d 12f3 fbbd 9448 f1bd 6ef0 963e
00000100: 284a 243e 14b1 ab3d 9c7b 5bbe c0f1 cf3e
00000110: deae 173e e047 b03d d79d febd ecb7 dabd
00000120: 123c 21bd ae09 10bd fa91 f0bd 7e61 143d
00000130: ce2b 93be df75 46be bcc6 ff3d 0f2f 2dbe
00000140: c348 adbe 329f f33d 7e9e 8c3e 9f89 22be
00000150: 9ae4 5e3e 0ead 26bd 6b01 a33d 85eb 85bd
00000160: 8675 0dbe 91ca 633d f501 0b3e 3a9d 723e
00000170: f34d c13e a046 abbe 9b99 28be d8b7 66bd
00000180: b6a4 733e ba2c 3a3d 8c0b f6bb dde5 efbc
00000190: 588b 8f3e 0a8b 9cbe 17b2 a13d c625 a839
000001a0: 96e0 9f3e dcfc 023d d462 cc3c c358 cf3d
000001b0: 4632 14bd 65f2 3d3c f5da 573e b96a 53bd
000001c0: a5c9 7cbd f21b 233e c0d2 7b3d 531f ef3d
000001d0: 4c9b 8bbd d9b0 873d af59 8bbe 084b 73bd
000001e0: 27a5 9e3e 71db b03e e036 46be 54b9 f9bd
000001f0: 645c dc3d 2387 a7be 436f 5f3e 340f 00bc
00000200: 5734 59be 2a1f febb 5d39 1bbe 091b 803e
00000210: 175d 123e b03c ebbd e549 21be 46de ccbe
00000220: af63 0bbe 0ca1 6a3e bd67 6c3d d148 90be
00000230: bbd5 c53d 85c5 48be 24e1 693e 6fbf cc3d
00000240: 2c12 b4bd 7093 f33c 4a68 fd3d fb38 61be
00000250: 87d6 1ebd 7a20 bfbd c3f8 b03d 0200 dbbe
00000260: 5f5e 8e3d fd95 a7bd f88b 1b3d 4549 8b3e
00000270: e90b 273c c137 e4bd b56a 37be 64ef 80be
00000280: 30cf 84be f00f 143e 8088 ebbe 934d aa3e
00000290: 9dcc 55be 46f3 353e 55f6 f03d 42c5 8dbc
000002a0: 57da 6c3e a937 8dbe 479c c33c 71cb 06be
000002b0: f36c 33bd d93a fb3b cba2 bdbd 867b fe3c
000002c0: bb0a 0fbe 6598 a6be b326 4ebe c478 71be
000002d0: d60b f4bd b8b7 be3d 6675 cd3d 61b0 983d
000002e0: 5781 17be 440f d1bc d405 c03d 43aa e13d
000002f0: 3339 91bc 8d1a bc3c be46 30be 35b5 21bd
00000300: b75b 1d3d 4163 a23d 1595 60bb 4fc7 aabe
00000310: 81c1 80ba 5e77 9dbe 3620 21be 22ec 05be
00000320: 093d cfbc d334 ea3c f5f2 61be 5fcb d2bc
00000330: 16eb b8bd 6cc5 773d 6175 173d 22ab 1d3e
00000340: 2356 efbd 60e9 b2bc 0205 d93d 93e3 6b3d
00000350: ad5c 083e ef00 1bbe 3a2e a13d 6908 f9bd
00000360: 9d44 ed3c c379 92bc f738 d13d df49 943d
00000370: 97c8 1ebc b618 bdbd 16bf 133e 8c05 a43d
00000380: f857 b1bb 4af7 813d 2e5c 6cbe ca21 99bd
00000390: b6a6 83bc f028 8d3e 6d15 553e bc53 7fbb
000003a0: 8b70 d0be b03d 99be 39ba 573e af9f 103e
000003b0: b514 db3c 59e7 093d 850b 9c3d 7ccd c0be
000003c0: 4b4c ed3d 657a 463e 0462 7f3e 025e 043e
000003d0: 9c49 86be ffd5 2a3d 9a79 143e 8d6b 12bf
000003e0: f41c 673d 6791 463e 72b1 29be 81f7 8fbe
000003f0: 429c cabe 065a ef3d 65e9 bebd cc19 75bd
-0.21049283 -0.14747009 0.23055923 -0.15855469 0.13592467 -0.14934278 -0.055680428 0.1638655
-0.035085555 -0.00421362 0.0679259 -0.21605924 -0.21446908 -0.031163216 -0.047539487 -0.36364764
0.10359048 -0.06355135 -0.13984346 -0.32203862 -0.10234201 0.49825865 -0.23199065 -0.02157749
-0.2620444 -0.10002389 -0.26010126 -0.08070315 0.30959114 -0.013157196 -0.01761346 0.0041896547
-0.017575637 0.06727762 -0.13417971 0.09541474 0.10232688 0.01685482 0.31004584 -0.10349064
-0.024786538 -0.20608601 -0.03343756 -0.121950276 0.035836503 -0.1237559 0.3963391 -0.44236422
0.13986686 -0.07877087 -0.12546864 0.21588458 0.15773463 0.015700024 -0.022979718 0.047957044
-0.029358556 -0.16159447 0.124628864 0.014589863 0.03535178 -0.12302221 -0.11781421 0.29480308
0.16043913 0.08383384 -0.21433872 0.40614128 0.148128 0.08607459 -0.12432449 -0.106796116
-0.03936393 -0.03516548 -0.11746593 0.03622579 -0.28744358 -0.19380902 0.124890774 -0.16912483
-0.33844575 0.118955985 0.2746467 -0.15872811 0.21766892 -0.04069238 0.07959255 -0.065390624
-0.13814363 0.055613104 0.13574965 0.2369279 0.37754783 -0.3345232 -0.16464846 -0.05632767
0.23793301 0.04545281 -0.0075087007 -0.029284412 0.28035998 -0.30574828 0.07895296 0.000320716
0.31226033 0.031979427 0.024949469 0.10124352 -0.036180757 0.011593436 0.21079619 -0.05161545
-0.06171574 0.15928629 0.061480284 0.116758965 -0.0681673 0.06625528 -0.2721686 -0.059397727
0.30985376 0.3454242 -0.1935687 -0.12193552 0.107598096 -0.3272029 0.21819787 -0.007816125
-0.21211372 -0.00775518 -0.15158601 0.25020626 0.14293323 -0.114861846 -0.15750845 -0.4001333
-0.13612245 0.22912997 0.05771612 -0.28180555 0.096599065 -0.19606598 0.2283979 0.099974506
-0.087925285 0.02973339 0.12373407 -0.21994393 -0.038778808 -0.09332366 0.086411975 -0.42773443
0.069515936 -0.08182905 0.03797528 0.27204338 0.010195711 -0.11143447 -0.17911799 -0.2518264
-0.25939322 0.14459205 -0.4600258 0.3326231 -0.20878835 0.17768583 0.11765734 -0.017305974
0.23130165 -0.27581528 0.02387823 -0.13163544 -0.043805074 0.0076669273 -0.09259566 0.03106476
-0.13968937 -0.32538143 -0.2013195 -0.23581225 -0.1191632 0.09312385 0.100321576 0.074555166
-0.14795433 -0.025519975 0.093761116 0.11018803 -0.01772747 0.02296188 -0.17214486 -0.039479453
0.038417544 0.079290874 -0.0034268547 -0.33355185 -0.0009823294 -0.30755132 -0.15734944 -0.13078359
-0.025297659 0.028589642 -0.22065337 -0.02573174 -0.09029214 0.06049101 0.036977176 0.15397313
-0.11686351 -0.021839797 0.10596658 0.05759008 0.13316603 -0.15137075 0.07870145 -0.12159807
0.028963381 -0.017880326 0.10215943 0.07240652 -0.009691379 -0.09233229 0.14428362 0.080088705
-0.005412098 0.06345995 -0.23082039 -0.07477148 -0.016070705 0.27570295 0.20808955 -0.0038959822
-0.40710863 -0.29929876 0.21067132 0.14123414 0.026743272 0.033667896 0.07619385 -0.37656772
0.11586817 0.19382627 0.24939734 0.12926486 -0.26228034 0.04170799 0.14499512 -0.5719536
0.056424096 0.19391404 -0.16571596 -0.28118518 -0.3957234 0.116870925 -0.0932186 -0.059839055

mlp_extractor.policy_net.2.bias f4 [64]
00000000: 3040 01bc 702a b1bc 77b4 97bc 185e 91bc
00000010: 26be 103c 392a 97bc 2f42 8ebb ac93 6dbb
00000020: 7ef1 1dbc d012 943b 7283 853c 92e6 cf3b
00000030: f3bd 3a3c e88e 54bc d54d 343b 409b 363b
00000040: 5945 1bbc e7c0 e7bb 05b9 99bc 0651 6eb9
00000050: 1748 f838 3893 4739 8121 a6bb 27a5 a9bb
00000060: e286 7d3b e22b 4ebc b599 f23b 1cda 2fbc
00000070: 94b9 3cbc ad3f 9b3b f6d6 9fb9 bd3f 863c
00000080: d55c 38bc b40b 3c3c df2b 093c 309a 3bbb
00000090: 752a 253b eb15 a8ba 8d10 81bb 332d b03c
000000a0: c15c 88bc 012e 2a3a 65d2 583d 0c02 58bb
000000b0: 8e9b 12bb 547b 9bbc 5c04 803a 3f06 2b3c
000000c0: 4b74 cb3c ba38 46bc 1627 96bc 6c42 aa3c
000000d0: 6a8b 4a3b 4585 e0bc df58 fe3b e976 60bb
000000e0: 27fb 413c 46e7 c83c 814e 163c 8aca 54bc
000000f0: bd47 ea3a 8d20 af3b 1117 c1bc b6aa 6d3c
-0.007888839 -0.021626681 -0.01851867 -0.017745063 0.008834397 -0.01845275 -0.004341386 -0.003625135
-0.009640096 0.004518844 0.01629803 0.006344625 0.0113978265 -0.012973525 0.0027512212 0.0027863532
-0.009476983 -0.0070725563 -0.018764982 -0.00022727632 0.00011838989 0.00019032962 -0.005069912 -0.0051771584
0.0038685133 -0.012583705 0.007403577 -0.010733154 -0.011518855 0.0047378154 -0.00030487002 0.016387815
-0.011252602 0.0114774 0.008372276 -0.0028625838 0.0025202308 -0.0012823915 -0.0039387406 0.021505928
-0.016645791 0.00064918405 0.052935023 -0.0032960204 -0.002237055 -0.018979706 0.0009766924 0.010438501
0.024835726 -0.012098486 -0.018329185 0.020783626 0.003090585 -0.027407298 0.007762059 -0.0034250563
0.011839665 0.024524342 0.00917399 -0.012987742 0.0017874163 0.0053444565 -0.02357057 0.014506033

action_net.weight f4 [2, 64]
00000000: b70d ccbc a7f5 24be eb0d c5bd cea6 2dbd
00000010: 23ba 863d 9299 04be 9b8a 9abc 3c62 9b3d
00000020: 862d dd3b 5973 b3bb ff88 da3c de89 bbbd
00000030: 7509 a13d 52b9 fa3c b7f6 a33c 376d 12bc
00000040: 0159 cdbc 19bd 58bd 9d92 dcbc 9283 903b
00000050: 2d83 e43d cfe7 16bd 61a5 c5bc 34e8 67bc
00000060: 1059 1bbd 01fd b5bc fc63 303d ca5a 91bc
00000070: 244a 4bbd b15f fdbb 6ca0 b6bb d8be d63c
00000080: 49f6 83bd cb33 083d 159a a0bc fa7d 17bc
00000090: 56da 713d 3ebb c53b 4b50 b0bd 88f2 d53d
000000a0: 30c9 13be a24f c03b 3132 573e 93fc d8bc
000000b0: ea6b 4fbd 18e1 0dbe 6a49 653c a32b a9bc
000000c0: 7662 0b3d db7f c1bb 8b17 aebd 4aea f4bd
000000d0: 1ede 5ebd 5010 03be e897 b93b 9e39 4fbd
000000e0: 7c87 c73c 1726 003d 0965 683b 669d 63bc
000000f0: eaf7 853c 1f5c 96bc 8cc3 23be 6d2e bebc
00000100: 6b7c 1dbd d0a6 cebc ff8c 803c 5943 5dbd
00000110: a512 8ebd 3e85 2e3d 9fc7 7e3c 0036 4b39
00000120: 8978 bd3c 8aba e3bc 3112 3e3d 70bb 50bd
00000130: 28c0 3cbd 9bd9 3b3d 1528 68bd e64d 433c
00000140: 298e 2a3b 4a5e 94bb 582c 47bd 9981 cb3a
00000150: 039f b93b db96 043d 563a 0e3d 6c68 8fbc
00000160: f78d 3e3d 4d66 5abd 57a0 853b fdb3 b6bc
00000170: 0fce 8ebc b631 ffbc 514d c23d 437c 213c
00000180: 76cd c43c a269 083c 6f50 8dbd 6d77 a33c
00000190: 4561 283c 5477 77bd b9c0 283c 0360 863d
000001a0: df07 41bc 89c3 b6bc 0f35 3fbd 7444 c9bc
000001b0: 6549 e03c 3801 60bc 6d2c 4d3c edbb 56bd
000001c0: 6efe 433d 9f33 f43c 407b 3f3c 37db 47bb
000001d0: c29a 343d d740 90bc 1ff5 8bbb 3533 78bc
000001e0: 7251 42bd b5c9 3c3c 3c94 97bc 14f8 4dbd
000001f0: 31e9 4abc 0e22 2fbd c771 1ebd 2645 bdbb
-0.024908883 -0.16109334 -0.09621795 -0.042395405 0.065784715 -0.12949207 -0.01886492 0.07587096
0.0067498116 -0.005476397 0.026676653 -0.091571555 0.07863132 0.030605946 0.020015104 -0.008937172
-0.025066854 -0.052914713 -0.02692538 0.0044102157 0.11157832 -0.036842164 -0.02412671 -0.014154483
-0.037926733 -0.022215368 0.043064103 -0.017743487 -0.049631253 -0.0077323546 -0.005573323 0.026214048
-0.064434595 0.03325252 -0.019604722 -0.009246344 0.059046112 0.006034284 -0.08609065 0.1044665
-0.14432216 0.005868868 0.2101524 -0.026487624 -0.050640024 -0.13855398 0.013994554 -0.02065069
0.034029447 -0.005905134 -0.08500584 -0.119587496 -0.054411046 -0.12799191 0.0056638606 -0.050592057
0.024356596 0.031286325 0.0035460612 -0.013892507 0.016353566 -0.018354474 -0.15992564 -0.023215497
-0.038448732 -0.025226027 0.015692232 -0.054019306 -0.0693715 0.04260754 0.015550523 0.00019379705
0.023128765 -0.02779891 0.046404067 -0.050960004 -0.046081692 0.04586182 -0.05667885 0.011920428
0.0026024675 -0.0045278417 -0.048626274 0.0015526294 0.0056647076 0.03237043 0.034723602 -0.017505847
0.046522107 -0.053320218 0.004077952 -0.022302622 -0.01743224 -0.031151634 0.09487403 0.009856286
0.024023753 0.008325966 -0.06900107 0.019954408 0.010277097 -0.060416535 0.010299855 0.065612815
-0.011781662 -0.022310035 -0.04668146 -0.024568774 0.027378747 -0.013672166 0.012522799 -0.052425314
0.047850065 0.029809771 0.0116871 -0.0030495652 0.0440929 -0.017609043 -0.004271164 -0.015148927
-0.047440954 0.0115227 -0.0185033 -0.050285414 -0.012384699 -0.042757086 -0.038682725 -0.0057760654

action_net.bias f4 [2]
00000000: 8236 083d 0bed 2abd
0.033255108 -0.041729968
