Godot_Reinforcement_Learning-main/Examples/Racer/Racer.onnx (onnx, 41427 bytes, 6 tensors)

mlp_extractor.policy_net.0.weight f4 [64, 86]
00000000: 4bcf 883d 1061 2fbd 0bab 193d 5dfc d6bd
00000010: 0b38 0e3e 83a7 0cbc 1194 eebd 03d2 6d3e
00000020: 7b7d fd3d b295 08be 0bc9 033e 1b75 743e
00000030: 4e14 85bc f41f 993e bf7e c1bd acbc 043e
00000040: 57e6 27be 8a20 153d 799c 73be 2150 37be
00000050: 58e3 313e ac90 9bbb a95c 93bd 8d28 b03d
00000060: 8cb5 c23d cd75 24be 1f41 a2bc 6e9f 313e
00000070: f3dc 31bd a2a3 223e cd1f db3c cd8d 3b3e
00000080: 821e 0d3d 79de 3ebe 77b3 013e f7fd ecbd
00000090: b319 9abe 7230 833e 8417 883e d59d 18bd
000000a0: 6aa6 c33d 5d10 cc3e 16a4 c63d 5cf1 743e
000000b0: 1f27 17be 11ca 6f3e bb9e cabc 02dc 23be
000000c0: 776b 173e 69af 36be 211c 19be 06c4 3dbe
000000d0: 2701 a03d 7c8e c5bd 95fa 36be f156 5abe
000000e0: ea71 2a3e c00a 48bd 072f 683e baea b33e
000000f0: 89de 773a ee02 12be 8861 bbbd 6387 9cbd
00000100: 0c90 7fbd ca06 8dbd f9db 733b 4e52 cbbc
00000110: 6671 153b aef8 1b3e df14 8f3e e24c 153e
00000120: dfbf f6bd 3a3f 54bc c55d 303d 8239 c2bd
00000130: 9f1c 07bc 4a21 863e a576 fcbc 94dc d33d
00000140: 836d bc3e 8a16 a33d 2437 c2bd 72cb b63e
00000150: 2134 5ebe 4d7e fdbb dcc0 893d 0cc8 d8bd
00000160: 554e 91bc dac7 4abe 8b47 cfbd 21d8 833e
00000170: 8545 823c 0fdb 50bd 5672 e53d 27b3 94bc
00000180: a668 a13e 2e9c a73e 4482 00be 044d 063c
00000190: c76d 2d3e a0d6 9abc c50f 053e 98cc 1a3d
000001a0: a599 093e 974d fe3c 7908 ddbd 81c4 5dbc
000001b0: 349b d73c 53f1 1cbd 4127 78ba 2d95 60be
000001c0: d528 0a3e 86b9 2ebc d2de 033e 8ba9 c0bd
000001d0: daed 0d3e 4406 b3be 085d f1bd 5502 e13d
000001e0: 6b68 7e3e ca5a 4d3e e482 8fbd 096b 433d
000001f0: f74f f3bd 8ee6 09be 38a2 383e 8134 7c3e
00000200: 5f4d aa3e 45ba 243e ef34 15be 5a83 26be
00000210: ec2b 743c c82a ba3d 8072 803e c9c0 663c
00000220: 2721 cb3d e4c5 613d 4cb2 693e 0268 da39
00000230: 31f1 a9be d23c 82bd 69f2 e83d f83e bf3d
00000240: e2c7 1b3e 5a81 debb d96d 47be 031e 2c3e
00000250: a028 b43d 7355 463d 8e58 97bd 7862 4b3e
00000260: 444f 503d 2c7b 8f3c 6aa2 023e de87 52bd
00000270: eee2 113d 65c0 463e c17c b33c 6650 32be
00000280: 8c02 b2bd caa8 7c3e 3861 09be 2508 ae3e
00000290: 1d47 5d3e 4e6f d9bc bb54 9f3d bd1f 90be
000002a0: b07b ad3e 38c7 c1bd c83c 99bd 21de e13e
000002b0: 633f db3d c2d5 1ebe a968 483e 4034 bb3d
000002c0: d264 623e 0fd1 8cbd 2980 5fbe 02ad 01be
000002d0: d3a3 b2bd afdf 943d 144d 203d 2191 6c3e
000002e0: ef5d 03be 562c 643e 0ad4 c53d 2a45 adbd
000002f0: b7ea 4cbe 801f 55be 2202 47be e951 d13d
00000300: f17d 203e a4d4 4c3e ea5e b73d e591 b13a
00000310: 6060 1ebe 996a f53d 6297 d7bc 21a6 92be
00000320: 54e7 eabc 975e 2abd 34f7 6c3e 7389 59bd
00000330: ca10 b83d 2908 b13d 98db acbe 254a 91be
00000340: 524e b0be 3a83 193b 0d45 923c 8444 4c3d
00000350: 6234 703d cfb5 483e 3170 2b3d f6a6 82be
00000360: 8a76 7a3e a61d d93d 2d23 11bb 8450 b03c
00000370: 761b 90be ba61 7dbd 9a36 1abd f7f1 37be
00000380: 4611 463e 67a5 2b3e 339c be3b dba8 773e
00000390: dcc2 a13b 3f50 35be 5125 8bbd dfa9 53be
000003a0: 9ae9 883d 0db6 103e f522 253e 3a59 23be
000003b0: 0b20 34bd 585b b93d 1757 01bd 80ed 89bc
000003c0: eb29 21bd f060 69bd ff5d bfbd e8fc 513d
000003d0: c72d df3c 58d2 e5be eda5 e53d 48ea 0fbe
000003e0: 3e42 133d d98e 2d3e 3b81 813d ce12 a0be
000003f0: 6141 e83c 9a85 0e3e 8b55 3e3e 96de 25bd
0.06680163 -0.042817175 0.037516635 -0.10497353 0.13888566 -0.00858486 -0.11649335 0.23224644
0.12377449 -0.13338354 0.1286966 0.23872797 -0.016245034 0.2990719 -0.09448003 0.12962598
-0.16396461 0.036407985 -0.23790158 -0.1790166 0.17371881 -0.004747471 -0.07195408 0.086014844
0.095072836 -0.16060562 -0.019806443 0.17345974 -0.043423604 0.15882733 0.026748562 0.18315811
0.034452923 -0.18639554 0.12666117 -0.115718774 -0.30097732 0.25622898 0.2658044 -0.037259895
0.09553225 0.39856234 0.09699266 0.23920196 -0.14761017 0.23416926 -0.024733892 -0.16001895
0.14787088 -0.17840351 -0.14952137 -0.18531808 0.0781272 -0.09646317 -0.17869027 -0.21322228
0.16645017 -0.048838377 0.2267419 0.3514002 0.00094554626 -0.1425893 -0.09149462 -0.076430105
-0.062393233 -0.068860605 0.0037209971 -0.02481952 0.0022803186 0.15231583 0.2794561 0.1458011
-0.12048315 -0.0129545275 0.043058176 -0.09483625 -0.00824657 0.26197273 -0.030818293 0.10344806
0.368023 0.07963283 -0.094831735 0.3570209 -0.21699573 -0.0077360035 0.06726238 -0.10585031
-0.017737547 -0.198028 -0.101210676 0.2575083 0.01590229 -0.05099016 0.112034485 -0.018151833
0.31525153 0.32736343 -0.12549692 0.008197073 0.16936408 -0.01890117 0.12994297 0.037792772
0.13437517 0.031042857 -0.10792632 -0.01353562 0.026319124 -0.038316082 -0.00094662985 -0.21931906
0.13492139 -0.010664349 0.12877968 -0.09407338 0.13860264 -0.34965718 -0.117853224 0.10986773
0.2484452 0.20054165 -0.07007387 0.0477095 -0.118804865 -0.13466856 0.18030632 0.24629404
0.33262154 0.16086681 -0.14570974 -0.16261044 0.01490305 0.09090191 0.25087357 0.0140840495
0.09918433 0.055120364 0.22821921 0.00041657692 -0.33191827 -0.06359257 0.11374361 0.09338182
0.15212968 -0.0067903223 -0.19475497 0.16808324 0.08796811 0.048421334 -0.07389937 0.19861782
0.050856844 0.017514788 0.12757269 -0.051399104 0.035616808 0.1940933 0.021910073 -0.17413482
-0.08691892 0.24673763 -0.13415992 0.3399059 0.21609159 -0.026542332 0.07779833 -0.28149214
0.3388343 -0.09461826 -0.07482296 0.44114783 0.107054494 -0.1551123 0.19571175 0.09140825
0.22108772 -0.06875812 -0.21826233 -0.12663653 -0.08722653 0.07269227 0.039136007 0.23102237
-0.12828802 0.22282538 0.09659584 -0.084604576 -0.20011412 -0.20812798 -0.19434407 0.10220701
0.15673043 0.20002991 0.0895365 0.0013547508 -0.15466452 0.119832225 -0.026317302 -0.2864237
-0.028674759 -0.041594114 0.23141176 -0.053109597 0.08987577 0.086441346 -0.33761287 -0.2837688
-0.34434754 0.0023424164 0.017855192 0.04987003 0.058643706 0.19600604 0.04185504 -0.25518006
0.24459282 0.10601358 -0.002214621 0.021522768 -0.2814595 -0.061860777 -0.03764973 -0.17963396
0.19342527 0.16762315 0.0058169602 0.24185507 0.004936559 -0.17706393 -0.06794227 -0.2067027
0.06685181 0.14131947 0.16126616 -0.15952006 -0.04397587 0.090506256 -0.031577196 -0.016836882
-0.039346617 -0.056977212 -0.093441 0.05126658 0.027243508 -0.44887042 0.112132885 -0.14054215
0.035951845 0.16949023 0.06323477 -0.31264347 0.028351488 0.13918152 0.1858732 -0.040495478

mlp_extractor.policy_net.0.bias f4 [64]
00000000: c78e 433d 365d 95bd 28c5 383d 762c b73b
00000010: 9ebc bf3c 7121 87bc b679 1e3d 4754 b03c
00000020: d4e6 6abd 5cc4 cd3c f754 86bc 17eb 81ba
00000030: 80f6 8c3c 9236 dcbc 68fe bf3c 955e c43b
00000040: aa89 2cbb 365d 693d 3b4d 433d 1c13 783c
00000050: 61d7 4b3d 0158 e4bb dcb6 9abd a30d 173b
00000060: c48c e23c 253a 0f3c 7d50 733d ea4d 54bc
00000070: 220b 2c3d 8e25 adbb 605a a0b9 05d1 383d
00000080: a7e9 363d 6785 833c 9692 5fbd a631 1a3d
00000090: a2f8 3f3b 16f6 c5bc b03a 833c f628 f1bb
000000a0: f8b5 2ebd cd81 003d 83bb 12bd 6328 0abd
000000b0: 84ca 6cbc 43aa b73c 59be 31bd 44ea 75bc
000000c0: fb46 65bb e837 8cbd 4c97 7b3c 9964 d53c
000000d0: 4fdd a73b 037e 7abd 6f23 a8bd cc20 9a3c
000000e0: 928a 7a3d 6783 edbc 1e4e 96bc 1a89 423d
000000f0: fc8c b8bc 2580 853b 9f6c 173d f170 083b
0.047743585 -0.07293169 0.045109898 0.005590017 0.02340537 -0.016495438 0.03869029 0.021524562
-0.05734904 0.025118046 -0.016397936 -0.0009911981 0.017207384 -0.02688149 0.02343674 0.0059927204
-0.0026327171 0.05697366 0.047681075 0.015141275 0.04976595 -0.0069684987 -0.07554409 0.00230489
0.027655013 0.00874189 0.05940293 -0.012958029 0.042002805 -0.005284018 -0.00030584913 0.04512121
0.044656422 0.016054822 -0.054583155 0.037645005 0.0029292484 -0.024165194 0.016019195 -0.0073596193
-0.042654008 0.031373788 -0.035823356 -0.033729922 -0.01445258 0.022420054 -0.04339442 -0.015009467
-0.0034984935 -0.06846601 0.015355896 0.026048945 0.0051228176 -0.06115533 -0.082098834 0.018814467
0.061167307 -0.028993322 -0.018347796 0.04749403 -0.022528164 0.004074114 0.036968824 0.0020819271

mlp_extractor.policy_net.2.weight f4 [64, 64]
00000000: 661a 1d3e e3c1 973d 57d4 61be c7ca cebc
00000010: 0d29 533e f425 cc3d 6456 173d fbe4 823d
00000020: 3a55 913e ae75 c53d 980a 8abc bb1a eb3d
00000030: b8fb 49bd 6557 babd 7e76 40ba 137b 85be
00000040: b9d4 943d 92c2 c03c 0b2c f5bd 0c1a 1b3e
00000050: 95b9 743d fff4 1a3f 1f4f 563c 9dce bb3d
00000060: a429 29be bcd7 aebe 31bd b5be 5432 abbd
00000070: fcd4 7dbe 877f b3bd 4060 1ebe 1bd1 923d
00000080: 8354 87bd 7a7a 38bb 73d9 5a3d 4e31 9b3e
00000090: 69cb a53e cf9c a03e 11da 7f3e f116 4d3e
000000a0: 64d0 b33e 4cff b4bd 348d 1e3e ee02 043e
000000b0: 6c32 953d 42e1 a13d e562 a13d 12ef 4bbe
000000c0: ac90 fbbd 27d3 7e3e 559a 943e 90cc 09be
000000d0: 3ec7 e8bd 02ab 533e bbf3 d13d b5f4 12be
000000e0: a302 18be b333 07be a80c 553d d6bb a0be
000000f0: 0e03 c7bd 6bbd 7ebe 7e1f 2abe d8b9 e43d
00000100: 342f dfbc 4d63 88bd f8d3 b1be 82ca c0be
00000110: 09a9 17be 12e2 5d3e a459 37be dd7b 9f3d
00000120: 5fe8 f23d 6128 3e3e 3dab b4be 1893 06be
00000130: c187 fd3d ba5d 09bd 9e2b 72bd 8f4c cd3e
00000140: bfc7 f9bd 485f 4f3e 6249 913d 7c02 9d3c
00000150: a777 51be 57ba 28bd 064f e4bd 87c9 e23d
00000160: ca8c 4bbc 311e 9f3b f52e bfbc c962 4ebe
00000170: 3829 db3d 1301 46be 655c c3be 180a 77be
00000180: 42f0 933d 08f0 203d 5bba 3e3e f40b bf3d
00000190: 23cc 55be 11f2 ffbd 5cb0 0ebc 861d 953c
000001a0: 8dfd 523d 1be8 d33e e6cd 07bc 32f7 f23d
000001b0: d157 cbbd bb05 183e 0d45 303e 4ecd 313e
000001c0: 330f d8bd c112 46be 6e41 ff3d fb59 95be
000001d0: bdf4 cf3d a7fc dcbd 544b cabd 9ead a83d
000001e0: 53e7 b33e 0196 a5bd b3a7 913d 9333 edbd
000001f0: 1f02 5ebe 833c cf3e 8e31 653e b4f1 55be
00000200: 9be2 9fbe 25cb 893d 5283 ec3b b219 d9bd
00000210: 29e7 7fbe 509d debe 062a a03e 9ea2 953e
00000220: 27fb 7bbe 6910 81be a154 5cbe d32c 293e
00000230: 66d8 413e af05 e43d 5117 16bf ffef 60be
00000240: f535 9d3b 49c3 5fbd 107d 613e 2d70 26be
00000250: 4576 233e ffda 583e 6b86 d7ba 6cc8 923c
00000260: 62c2 eb3d 2aa7 753e 0647 173c 38bd c2bc
00000270: 2bff bfbe 331c 9abd 0783 3fbd c2fd b5bd
00000280: 8ac4 4a3e 64a8 93be 5971 e53d bb7a 91bd
00000290: 2b47 ea3c d9ad 643e 613f e4b9 c18e a03c
000002a0: 96a4 c6bd 5182 9d3e e0ee f7bd 0433 943d
000002b0: e241 f3bb 7477 8d3e 95e1 7d3d 8f2e b3bc
000002c0: 7c46 493d 83fb 5dbd 1d1a 16bd b637 fcbc
000002d0: 95be 2bbe 1eae e4bd 76fc e33d e703 38be
000002e0: de08 7cbd fe04 5ebe 9a97 363c 8350 513d
000002f0: 5cc1 823e 7dab 8c3c 2246 f93a 84a2 2dbd
00000300: 2b0e 05be 4140 133c 8115 bd3e 5f26 3dbd
00000310: a13b 993d e645 70be 5552 2fbd d9b1 23be
00000320: edbd 70bc ade0 afbc 978a eabc 2224 a73e
00000330: 804d 35be f78b d93d 7fa0 bb3e 52ec 973e
00000340: 28f2 2cbc aedf bfbc 4673 133e 1a02 d13c
00000350: b77e db3d ba93 f93d 12ae 76bc a405 a43c
00000360: 9ca7 f63d afc8 52be 175c 97bd 1f0c 4f3c
00000370: d71b 7bbe f9b2 22be b803 a5bb 5e6a b7be
00000380: 9ba9 543c 93d6 9dbe 9823 903e 9e29 203e
00000390: ec61 b23e 7636 85be 46ec b7be 8146 243e
000003a0: 7242 ffbd e25c 4e3e b795 253e 57ef 943e
000003b0: 2da1 be3d 1be1 0a3d 01d9 acbe 556e 86be
000003c0: 893d 33bd 88a0 58be 9c2c a1bd 9c43 7dbe
000003d0: e46e 223e 6efc 683e 8656 ae3d 7fe4 d23d
000003e0: 3e5d 3c3d 40c1 3dbe cfaa 8f3d 5bf3 e93e
000003f0: 1dc1 923d 6e94 86bd 63b4 e5bd fa31 833d
0.15342101 0.07410028 -0.22053657 -0.025243176 0.20621128 0.099681765 0.036947623 0.06391331
0.28385335 0.09641586 -0.016850755 0.11479708 -0.049312323 -0.090987004 -0.00073418755 -0.2607046
0.07267136 0.023530278 -0.11971291 0.15146655 0.059747297 0.60530084 0.013080387 0.09170268
-0.16519791 -0.34148967 -0.35495904 -0.08359209 -0.24788278 -0.08764558 -0.15466404 0.0716879
-0.06607916 -0.0028149174 0.053430032 0.30311054 0.32381752 0.31369635 0.2498553 0.20028283
0.35119927 -0.088377565 0.15483552 0.12891743 0.07285008 0.07904293 0.07880191 -0.19915417
-0.12283453 0.24885236 0.29023996 -0.1345694 -0.113661274 0.20670703 0.10251566 -0.14351161
-0.14844756 -0.13203315 0.052014023 -0.31393307 -0.097173795 -0.24876945 -0.16613576 0.111682594
-0.027244188 -0.06659565 -0.34732032 -0.376545 -0.14810576 0.2166827 -0.17905289 0.07787297
0.118607275 0.18570091 -0.35286894 -0.1314205 0.12379409 -0.03353665 -0.059123628 0.40097472
-0.12196302 0.2025119 0.07094075 0.019166224 -0.204558 -0.041193333 -0.11147885 0.110735945
-0.012423703 0.004855894 -0.02333782 -0.20154871 0.10701221 -0.19336347 -0.3815643 -0.24124944
0.0722356 0.03929141 0.18625776 0.09328452 -0.20878653 -0.124973424 -0.00870904 0.018202554
0.051511336 0.4138802 -0.008288836 0.11863555 -0.09928859 0.14845936 0.17213841 0.17363474
-0.10549774 -0.19343092 0.124636516 -0.29170212 0.10154102 -0.10790377 -0.09877649 0.0823624
0.35137424 -0.080852516 0.07112064 -0.115821026 -0.21680497 0.40475854 0.22382185 -0.20892984
-0.31227574 0.067282 0.007217803 -0.10600604 -0.24990524 -0.43479395 0.3128206 0.2922563
-0.24607526 -0.25207832 -0.21516658 0.16521005 0.18930206 0.111338966 -0.5862933 -0.21966551
0.004797692 -0.054629598 0.22020364 -0.16253729 0.15963085 0.2117729 -0.0016443258 0.017917834
0.11511685 0.2398955 0.009233242 -0.023771867 -0.37499365 -0.0752491 -0.046755817 -0.08886291
0.19801536 -0.2883941 0.1120326 -0.07103487 0.028598389 0.22331943 -0.0004353477 0.01959932
-0.09699361 0.30763486 -0.12106109 0.07236293 -0.0074236253 0.27630198 0.06198271 -0.021872787
0.049139485 -0.05419494 -0.036645997 -0.030788284 -0.1677192 -0.11166023 0.111321375 -0.17970239
-0.061531894 -0.21681592 0.011144543 0.051102173 0.25538146 0.017171616 0.0019018094 -0.042391315
-0.12993686 0.008987487 0.3693047 -0.04617917 0.074820764 -0.23464164 -0.042803127 -0.15985812
-0.014693719 -0.021469438 -0.028630538 0.32644755 -0.17705345 0.10622399 0.36645886 0.29672486
-0.010555781 -0.023422088 0.14399442 0.025513697 0.10717528 0.1218638 -0.01505615 0.02002222
0.12043688 -0.20584367 -0.073906116 0.012637167 -0.24522339 -0.15888585 -0.0050358437 -0.3582334
0.01297989 -0.3082777 0.28152156 0.15640876 0.34840333 -0.26018113 -0.3592245 0.1604252
-0.12463845 0.2015262 0.16170393 0.29088852 0.093080856 0.033906084 -0.3375931 -0.26256052
-0.043759856 -0.21154988 -0.07869837 -0.24732822 0.15862614 0.22752544 0.08512597 0.102974884
0.04598736 -0.1853075 0.07015001 0.45693478 0.0716574 -0.065712795 -0.11216047 0.06406017

mlp_extractor.policy_net.2.bias f4 [64]
00000000: e8e8 a4bd 7af9 cc3c fd36 6ebb f5e4 93bc
00000010: 8524 833c 246c 283d 56fc ffbc 8113 c53a
00000020: 0a3e 9fbb 4549 43bc a7af 9a3a d9ab 343d
00000030: 7003 3bbd a671 a0bc b1ee 003a 7b26 363d
00000040: 7dcc c2bc 97f6 60bc 9aa5 09bd 30af 59bd
00000050: 840d 6a3d 2ebd b5bc 407e 8bbc 6ac8 343d
00000060: 13a5 4cbd 0ad3 623c d23d 0d3d 04ff 02bd
00000070: 6ff4 26bc 6fef 053d 86e4 91bc 7875 b5bc
00000080: b280 173d ed97 0ebc ef8f 66bd 37b2 0dbc
00000090: d367 2abb fb5f c9bc d707 113d 1673 35bd
000000a0: 29c0 e1bc 711b f93c f35a 0dbd 6f8e 0cbd
000000b0: 70e9 9dbb f242 2abc bf35 273d 4efd ac3b
000000c0: c3c8 243d 524f c83c 179a 143d 97b7 a5bc
000000d0: 98ea 80bb 1cf1 413d 9006 b1bc c72c ad3c
000000e0: 236f 5b3c aa05 b6bc d096 03bd 8492 9e3c
000000f0: a356 5f3b 4368 bcbc 5dde 72bb 7787 0dbb
-0.08052236 0.025021303 -0.0036348694 -0.018053511 0.016008625 0.041118756 -0.031248253 0.001503572
-0.0048596906 -0.011919324 0.0011801616 0.0441092 -0.045657575 -0.019585442 0.00049183803 0.04447029
-0.023779148 -0.013730667 -0.033605196 -0.053145587 0.057141796 -0.022184934 -0.017027974 0.044136442
-0.049962115 0.013844261 0.034482785 -0.031981483 -0.010190113 0.032699045 -0.017809164 -0.02215074
0.036987968 -0.008703214 -0.05628961 -0.008648447 -0.0026001825 -0.0245819 0.035407867 -0.044299208
-0.02755745 0.030408593 -0.034510564 -0.034315523 -0.0048190877 -0.010391938 0.04082274 0.0052792197
0.040230524 0.024451885 0.036279764 -0.020229144 -0.0039342158 0.04734908 -0.021609575 0.021139516
0.013393196 -0.022219498 -0.032126248 0.019356973 0.003407874 -0.022998935 -0.0037058808 -0.0021595636

action_net.weight f4 [3, 64]
00000000: e867 81bd 2b53 8d3c 58de 8abd 7a37 1ebd
00000010: db55 88bc 1455 29bd fa40 9dbd dc1a 953d
00000020: 0ee8 753b edf1 993c 00b6 08bc 14d2 573d
00000030: a3cf afbd 9b7d 82bd 8321 cbbd be4e ab3d
00000040: 904e 0b3c 29ff e13c 727f 79bd 7466 02bc
00000050: 0abc c73c 5b2f 47bd 345e cb3c 453b a13d
00000060: 8a1e babd 1187 86bd 9599 f03d 2ce5 2dbd
00000070: 00dd aabd d367 b53c 858e 723c 91fa 273c
00000080: 1680 da3c ce4a 4c3d fb51 153d 6cad b33c
00000090: a428 df3c 38bc 14bd b8f0 fc3c 0cc5 b5bd
000000a0: 96db 8ebd 670d 5a3b 38a7 cebd 82aa a5bd
000000b0: 1fed 92bd 39ab eebc 8911 dc3a 2c7a 473d
000000c0: 5373 a53d d49c 0b3d e50f 13bd 332b 19bc
000000d0: f820 54bd 4e3e 8a3c d58f 30bd ffe9 063d
000000e0: 1b71 27bd 285b 34bb 34ef 57bd 3c67 86bd
000000f0: 6133 5c3d 9897 a8bc 518d ebbc 7b53 973d
00000100: aca4 013e 580e d6bd d5b9 0dbd ac7c 45bd
00000110: 3481 ccbd 9d8e cbbd e27d c13d dc84 9f3d
00000120: 6a81 01be 849c d6bd 3688 6ebd 383e 753c
00000130: 04e8 9c3d c419 52bd 9d46 b5bd a0c9 003d
00000140: f832 163c fa13 103e 844d be3d 6161 723d
00000150: d8fd f2bd 5e9d 5ebd 351d da3d 8c76 a0bd
00000160: a4f8 0c3e 19ef cabd 3931 38bd bb95 c53d
00000170: 55ee f6bc 4da7 20bd 3cd0 a53d 1921 c43b
00000180: 68c8 4bbd 707e ef3d ccf4 413d 2052 903d
00000190: 0a00 9b3d eae2 473d 442b 80bd a0f8 7a3d
000001a0: 5490 083e 6f9e dd3d ab39 f83d 0c97 c83c
000001b0: 6102 c53c 14e9 a63d 89c9 6ebd 5fe2 fcbd
000001c0: 0977 b8bd 7cd0 c3bd 3a3e eabd 729f 1fbd
000001d0: 4f21 c7bd 37e7 51bd 3adf 233e 68d7 a8bd
000001e0: 11c3 f8bc dcbe fcbd 12f6 213d e66d ecbd
000001f0: 9471 d63d 29ff 743d 8fac 1f3c bd9d 80bd
00000200: f1f6 37bd 7dba a23d 4d8b 31bd 916c a4bd
00000210: 13f7 27bc 7e75 eebc a47c 8ebc df4e b9bd
00000220: f2e7 38bd 56cc 033d 1375 cfbd a88a ae3c
00000230: b73d d13c 5be2 f23c d4b8 23bd 8e71 b93d
00000240: 2099 063e 8e4e 803d 5193 0e3e 079a 533e
00000250: fdf5 8abb 0092 503d f0ee 573d 24c7 903d
00000260: f745 bb3d 6352 93bd 9a48 0a3e 6a0b 243e
00000270: 13a0 b2bc 022b 753d 61c6 a53d 0320 ff3d
00000280: 23cf f13b 06af fb3d eb4d d83d b15e 143d
00000290: 6e86 03bd 4d20 95bd ba26 0b3e 13e6 f8bd
000002a0: b37e 183d 0c6f 303d 2491 7dbd b7f7 1fbe
000002b0: be26 85bd 48e4 253e d33e d03c 261b 4f3c
000002c0: 8d46 b83c 059c ed3d f467 b6bd e5ab f1bd
000002d0: db14 1d3c 0fd0 24be 613f f93c e9f4 02be
000002e0: bf49 89bd 682e fb3c 9bd8 3ebd a80c 42bd
000002f0: 821a 8d3c 7fbd f83d 78a0 bf3d 99d8 ad3d
-0.06318647 0.017251572 -0.0678069 -0.038627125 -0.016642502 -0.041340902 -0.07678409 0.07280514
0.0037522349 0.018792117 -0.008344173 0.05269058 -0.085845254 -0.063716136 -0.09918501 0.08364628
0.0085026175 0.02758749 -0.060912557 -0.007958997 0.024381656 -0.048629146 0.024825193 0.07872633
-0.09087856 -0.065687306 0.117480434 -0.042454883 -0.08342934 0.022144234 0.014804487 0.010252611
0.026672404 0.049876027 0.036455136 0.02193328 0.027241059 -0.036312312 0.030876502 -0.08875474
-0.069754764 0.0033272149 -0.10090488 -0.080891624 -0.071741335 -0.02913438 0.0016789894 0.048700497
0.08078637 0.03408511 -0.03590383 -0.009348678 -0.051789254 0.016875412 -0.04310592 0.032938
-0.04087935 -0.0027520154 -0.052718356 -0.06562659 0.053759936 -0.020580098 -0.028753908 0.073889695
0.12660474 -0.104519546 -0.03460105 -0.0482146 -0.09985581 -0.09939311 0.09447838 0.07789013
-0.12647024 -0.10479072 -0.05823537 0.014968447 0.07661441 -0.051294103 -0.08851359 0.031442285
0.009167425 0.1407012 0.09292129 0.0591749 -0.11864823 -0.054349296 0.10650102 -0.07835111
0.13766724 -0.099088855 -0.044968817 0.096476994 -0.030142942 -0.03922205 0.08096358 0.005985391
-0.04975167 0.11694038 0.047352597 0.07046914 0.07568367 0.048800386 -0.06258252 0.061272264
0.13336307 0.108212344 0.12120374 0.024486087 0.024048986 0.08149925 -0.058297668 -0.12347864
-0.09007079 -0.095612496 -0.1143765 -0.03897042 -0.0972315 -0.051245894 0.16003123 -0.082442105
-0.030366452 -0.12341091 0.03954131 -0.11544399 0.10470882 0.059813652 0.009745731 -0.06280086
-0.044913236 0.07945726 -0.04334574 -0.0802852 -0.010251778 -0.029108759 -0.017393418 -0.090482466
-0.045143075 0.03217729 -0.10129752 0.02130635 0.025542123 0.02964895 -0.039971188 0.09054862
0.1314435 0.06264983 0.13923384 0.20664226 -0.00424075 0.050920486 0.052718103 0.07069233
0.09144204 -0.071934484 0.13504258 0.16019979 -0.021804845 0.05985547 0.080944784 0.124572776
0.007379429 0.122892424 0.10561737 0.036223117 -0.032110624 -0.072815515 0.13588992 -0.12153258
0.037230205 0.043074653 -0.061905995 -0.1562184 -0.0650153 0.16200364 0.025420582 0.01264075
0.022494579 0.11602024 -0.08906546 -0.118003644 0.009587492 -0.16094993 0.03042573 -0.12788738
-0.06703519 0.030661777 -0.04659329 -0.04737535 0.017224554 0.121455185 0.09356779 0.08488578

action_net.bias f4 [3]
00000000: e200 9e3d e458 acbc 2793 55bc
0.07715012 -0.02103848 -0.013035572
